…
      sampler {
        min_scale: 0.3
        max_scale: 1
        min_aspect_ratio: 0.5
        max_aspect_ratio: 2
      }
      sample_constraint {
        min_jaccard_overlap: 0.9
      }
      max_sample: 1
      max_trials: 50
    }
    batch_sampler {
      sampler {
        min_scale: 0.3
        max_scale: 1
        min_aspect_ratio: 0.5
        max_aspect_ratio: 2
      }
      sample_constraint {
        max_jaccard_overlap: 1
      }
      max_sample: 1
      max_trials: 50
    }
    label_map_file: "data/VOC0712/labelmap_voc.prototxt"
  }
}
layer {
  name: "conv1_1"
  type: "Convolution"
  bottom: "data"
  top: "conv1_1"
  param {
    lr_mult: 1
    decay_mult: 1
  }
  param {
    lr_mult: 2
    decay_mult: 0
  }
  convolution_param {
    num_output: 64
    pad: 1
    kernel_size: 3
    weight_filler {
      type: "xavier"
    }
    bias_filler {
      type: "constant"
      value: 0
    }
  }
}
layer {
  name: "relu1_1"
  type: "ReLU"
  bottom: "conv1_1"
  top: "conv1_1"
}
layer {
  name: "conv1_2"
  type: "Convolution"
  bottom: "conv1_1"
  top: "conv1_2"
  param {
    lr_mult: 1
    decay_mult: 1
  }
  param {
    lr_mult: 2
    decay_mult: 0
  }
  convolution_param {
    num_output: 64
    pad: 1
    kernel_size: 3
    weight_filler {
      type: "xavier"
    }
    bias_filler {
      type: "constant"
      value: 0
    }
  }
}
layer {
  name: "relu1_2"
  type: "ReLU"
  bottom: "conv1_2"
  top: "conv1_2"
}
layer {
  name: "pool1"
  type: "Pooling"
  bottom: "conv1_2"
  top: "pool1"
  pooling_param {
    pool: MAX
    kernel_size: 2
    stride: 2
  }
}
layer {
  name: "conv2_1"
  type: "Convolution"
  bottom: "pool1"
  top: "conv2_1"
  param {
    lr_mult: 1
    decay_mult: 1
  }
  param {
    lr_mult: 2
    decay_mult: 0
  }
  convolution_param {
    num_output: 128
    pad: 1
    kernel_size: 3
    weight_filler {
      type: "xavier"
    }
    bias_filler {
      type: "constant"
      value: 0
    }
  }
}
layer {
  name: "relu2_1"
  type: "ReLU"
  bottom: "conv2_1"
  top: "conv2_1"
}
layer {
  name: "conv2_2"
  type: "Convolution"
  bottom: "conv2_1"
  top: "conv2_2"
  param {
    lr_mult: 1
    decay_mult: 1
  }
  param {
    lr_mult: 2
    decay_mult: 0
  }
  convolution_param {
    num_output: 128
    pad: 1
    kernel_size: 3
    weight_filler {
      type: "xavier"
    }
    bias_filler {
      type: "constant"
      value: 0
    }
  }
}
layer {
  name: "relu2_2"
  type: "ReLU"
  bottom: "conv2_2"
  top: "conv2_2"
}
layer {
  name: "pool2"
  type: "Pooling"
  bottom: "conv2_2"
  top: "pool2"
  pooling_param {
    pool: MAX
    kernel_size: 2
    stride: 2
  }
}
layer {
  name: "conv3_1"
  type: "Convolution"
  bottom: "pool2"
  top: "conv3_1"
  param {
    lr_mult: 1
    decay_mult: 1
  }
  param {
    lr_mult: 2
    decay_mult: 0
  }
  convolution_param {
    num_output: 256
    pad: 1
    kernel_size: 3
    weight_filler {
      type: "xavier"
    }
    bias_filler {
      type: "constant"
      value: 0
    }
  }
}
layer {
  name: "relu3_1"
  type: "ReLU"
  bottom: "conv3_1"
  top: "conv3_1"
}
layer {
  name: "conv3_2"
  type: "Convolution"
  bottom: "conv3_1"
  top: "conv3_2"
  param {
    lr_mult: 1
    decay_mult: 1
  }
  param {
    lr_mult: 2
    decay_mult: 0
  }
  convolution_param {
    num_output: 256
    pad: 1
    kernel_size: 3
    weight_filler {
      type: "xavier"
    }
    bias_filler {
      type: "constant"
      value: 0
    }
  }
}
layer {
  name: "relu3_2"
  type: "ReLU"
  bottom: "conv3_2"
  top: "conv3_2"
}
layer {
  name: "conv3_3"
  type: "Convolution"
  bottom: "conv3_2"
  top: "conv3_3"
  param {
    lr_mult: 1
    decay_mult: 1
  }
  param {
    lr_mult: 2
    decay_mult: 0
  }
  convolution_param {
    num_output: 256
    pad: 1
    kernel_size: 3
    weight_filler {
      type: "xavier"
    }
    bias_filler {
      type: "constant"
      value: 0
    }
  }
}
layer {
  name: "relu3_3"
  type: "ReLU"
  bottom: "conv3_3"
  top: "conv3_3"
}
layer {
  name: "pool3"
  type: "Pooling"
  bottom: "conv3_3"
  top: "pool3"
  pooling_param {
    pool: MAX
    kernel_size: 2
    stride: 2
  }
}
layer {
  name: "conv4_1"
  type: "Convolution"
  bottom: "pool3"
  top: "conv4_1"
  param {
    lr_mult: 1
    decay_mult: 1
  }
  param {
    lr_mult: 2
    decay_mult: 0
  }
  convolution_param {
    num_output: 512
    pad: 1
    kernel_size: 3
    weight_filler {
      type: "xavier"
    }
    bias_filler {
      type: "constant"
      value: 0
    }
  }
}
layer {
  name: "relu4_1"
  type: "ReLU"
  bottom: "conv4_1"
  top: "conv4_1"
}
layer {
  name: "conv4_2"
  type: "Convolution"
  bottom: "conv4_1"
  top: "conv4_2"
  param {
    lr_mult: 1
    decay_mult: 1
  }
  param {
    lr_mult: 2
    decay_mult: 0
  }
  convolution_param {
    num_output: 512
    pad: 1
    kernel_size: 3
    weight_filler {
      type: "xavier"
    }
    bias_filler {
      type: "constant"
      value: 0
    }
  }
}
layer {
  name: "relu4_2"
  type: "ReLU"
  bottom: "conv4_2"
  top: "conv4_2"
}
layer {
  name: "conv4_3"
  type: "Convolution"
  bottom: "conv4_2"
  top: "conv4_3"
  param {
    lr_mult: 1
    decay_mult: 1
  }
  param {
    lr_mult: 2
    decay_mult: 0
  }
  convolution_param {
    num_output: 512
    pad: 1
    kernel_size: 3
    weight_filler {
      type: "xavier"
    }
    bias_filler {
      type: "constant"
      value: 0
    }
  }
}
layer {
  name: "relu4_3"
  type: "ReLU"
  bottom: "conv4_3"
  top: "conv4_3"
}
layer {
  name: "pool4"
  type: "Pooling"
  bottom: "conv4_3"
  top: "pool4"
  pooling_param {
    pool: MAX
    kernel_size: 2
    stride: 2
  }
}
layer {
  name: "conv5_1"
  type: "Convolution"
  bottom: "pool4"
  top: "conv5_1"
  param {
    lr_mult: 1
    decay_mult: 1
  }
  param {
    lr_mult: 2
    decay_mult: 0
  }
  convolution_param {
    num_output: 512
    pad: 1
    kernel_size: 3
    weight_filler {
      type: "xavier"
    }
    bias_filler {
      type: "constant"
      value: 0
    }
    dilation: 1
  }
}
layer {
  name: "relu5_1"
  type: "ReLU"
  bottom: "conv5_1"
  top: "conv5_1"
}
layer {
  name: "conv5_2"
  type: "Convolution"
  bottom: "conv5_1"
  top: "conv5_2"
  param {
    lr_mult: 1
    decay_mult: 1
  }
  param {
    lr_mult: 2
    decay_mult: 0
  }
  convolution_param {
    num_output: 512
    pad: 1
    kernel_size: 3
    weight_filler {
      type: "xavier"
    }
    bias_filler {
      type: "constant"
      value: 0
    }
    dilation: 1
  }
}
layer {
  name: "relu5_2"
  type: "ReLU"
  bottom: "conv5_2"
  top: "conv5_2"
}
layer {
  name: "conv5_3"
  type: "Convolution"
  bottom: "conv5_2"
  top: "conv5_3"
  param {
    lr_mult: 1
    decay_mult: 1
  }
  param {
    lr_mult: 2
    decay_mult: 0
  }
  convolution_param {
    num_output: 512
    pad: 1
    kernel_size: 3
    weight_filler {
      type: "xavier"
    }
    bias_filler {
      type: "constant"
      value: 0
    }
    dilation: 1
  }
}
layer {
  name: "relu5_3"
  type: "ReLU"
  bottom: "conv5_3"
  top: "conv5_3"
}
layer {
  name: "pool5"
  type: "Pooling"
  bottom: "conv5_3"
  top: "pool5"
  pooling_param {
    pool: MAX
    kernel_size: 3
    stride: 1
    pad: 1
  }
}
layer {
  name: "fc6"
  type: "Convolution"
  bottom: "pool5"
  top: "fc6"
  param {
    lr_mult: 1
    decay_mult: 1
  }
  param {
    lr_mult: 2
    decay_mult: 0
  }
  convolution_param {
    num_output: 1024
    pad: 6
    kernel_size: 3
    weight_filler {
      type: "xavier"
    }
    bias_filler {
      type: "constant"
      value: 0
    }
    dilation: 6
  }
}
layer {
  name: "relu6"
  type: "ReLU"
  bottom: "fc6"
  top: "fc6"
}
layer {
  name: "fc7"
  type: "Convolution"
  bottom: "fc6"
  top: "fc7"
  param {
    lr_mult: 1
    decay_mult: 1
  }
  param {
    lr_mult: 2
    decay_mult: 0
  }
  convolution_param {
    num_output: 1024
    kernel_size: 1
    weight_filler {
      type: "xavier"
    }
    bias_filler {
      type: "constant"
      value: 0
    }
  }
}
layer {
  name: "relu7"
  type: "ReLU"
  bottom: "fc7"
  top: "fc7"
}
layer {
  name: "conv6_1"
  type: "Convolution"
  bottom: "fc7"
  top: "conv6_1"
  param {
    lr_mult: 1
    decay_mult: 1
  }
  param {
    lr_mult: 2
    decay_mult: 0
  }
  convolution_param {
    num_output: 256
    pad: 0
    kernel_size: 1
    stride: 1
    weight_filler {
      type: "xavier"
    }
    bias_filler {
      type: "constant"
      value: 0
    }
  }
}
layer {
  name: "conv6_1_relu"
  type: "ReLU"
  bottom: "conv6_1"
  top: "conv6_1"
}
layer {
  name: "conv6_2"
  type: "Convolution"
  bottom: "conv6_1"
  top: "conv6_2"
  param {
    lr_mult: 1
    decay_mult: 1
  }
  param {
    lr_mult: 2
    decay_mult: 0
  }
  convolution_param {
    num_output: 512
    pad: 1
    kernel_size: 3
    stride: 2
    weight_filler {
      type: "xavier"
    }
    bias_filler {
      type: "constant"
      value: 0
    }
  }
}
layer {
  name: "conv6_2_relu"
  type: "ReLU"
  bottom: "conv6_2"
  top: "conv6_2"
}
layer {
  name: "conv7_1"
  type: "Convolution"
  bottom: "conv6_2"
  top: "conv7_1"
  param {
    lr_mult: 1
    decay_mult: 1
  }
  param {
    lr_mult: 2
    decay_mult: 0
  }
  convolution_param {
    num_output: 128
    pad: 0
    kernel_size: 1
    stride: 1
    weight_filler {
      type: "xavier"
    }
    bias_filler {
      type: "constant"
      value: 0
    }
  }
}
layer {
  name: "conv7_1_relu"
  type: "ReLU"
  bottom: "conv7_1"
  top: "conv7_1"
}
layer {
  name: "conv7_2"
  type: "Convolution"
  bottom: "conv7_1"
  top: "conv7_2"
  param {
    lr_mult: 1
    decay_mult: 1
  }
  param {
    lr_mult: 2
    decay_mult: 0
  }
  convolution_param {
    num_output: 256
    pad: 1
    kernel_size: 3
    stride: 2
    weight_filler {
      type: "xavier"
    }
    bias_filler {
      type: "constant"
      value: 0
    }
  }
}
layer {
  name: "conv7_2_relu"
  type: "ReLU"
  bottom: "conv7_2"
  top: "conv7_2"
}
layer {
  name: "conv8_1"
  type: "Convolution"
  bottom: "conv7_2"
  top: "conv8_1"
  param {
    lr_mult: 1
    decay_mult: 1
  }
  param {
    lr_mult: 2
    decay_mult: 0
  }
  convolution_param {
    num_output: 128
    pad: 0
    kernel_size: 1
    stride: 1
    weight_filler {
      type: "xavier"
    }
    bias_filler {
      type: "constant"
      value: 0
    }
  }
}
layer {
  name: "conv8_1_relu"
  type: "ReLU"
  bottom: "conv8_1"
  top: "conv8_1"
}
layer {
  name: "conv8_2"
  type: "Convolution"
  bottom: "conv8_1"
  top: "conv8_2"
  param {
    lr_mult: 1
    decay_mult: 1
  }
  param {
    lr_mult: 2
    decay_mult: 0
  }
  convolution_param {
    num_output: 256
    pad: 0
    kernel_size: 3
    stride: 1
    weight_filler {
      type: "xavier"
    }
    bias_filler {
      type: "constant"
      value: 0
    }
  }
}
layer {
  name: "conv8_2_relu"
  type: "ReLU"
  bottom: "conv8_2"
  top: "conv8_2"
}
layer {
  name: "conv9_1"
  type: "Convolution"
  bottom: "conv8_2"
  top: "conv9_1"
  param {
    lr_mult: 1
    decay_mult: 1
  }
  param {
    lr_mult: 2
    decay_mult: 0
  }
  convolution_param {
    num_output: 128
    pad: 0
    kernel_size: 1
    stride: 1
    weight_filler {
      type: "xavier"
    }
    bias_filler {
      type: "constant"
      value: 0
    }
  }
}
layer {
  name: "conv9_1_relu"
  type: "ReLU"
  bottom: "conv9_1"
  top: "conv9_1"
}
layer {
  name: "conv9_2"
  type: "Convolution"
  bottom: "conv9_1"
  top: "conv9_2"
  param {
    lr_mult: 1
    decay_mult: 1
  }
  param {
    lr_mult: 2
    decay_mult: 0
  }
  convolution_param {
    num_output: 256
    pad: 0
    kernel_size: 3
    stride: 1
    weight_filler {
      type: "xavier"
    }
    bias_filler {
      type: "constant"
      value: 0
    }
  }
}
layer {
  name: "conv9_2_relu"
  type: "ReLU"
  bottom: "conv9_2"
  top: "conv9_2"
}
layer {
  name: "conv4_3_norm"
  type: "Normalize"
  bottom: "conv4_3"
  top: "conv4_3_norm"
  norm_param {
    across_spatial: false
    scale_filler {
      type: "constant"
      value: 20
    }
    channel_shared: false
  }
}
layer {
  name: "conv4_3_norm_mbox_loc"
  type: "Convolution"
  bottom: "conv4_3_norm"
  top: "conv4_3_norm_mbox_loc"
  param {
    lr_mult: 1
    decay_mult: 1
  }
  param {
    lr_mult: 2
    decay_mult: 0
  }
  convolution_param {
    num_output: 16
    pad: 1
    kernel_size: 3
    stride: 1
    weight_filler {
      type: "xavier"
    }
    bias_filler {
      type: "constant"
      value: 0
    }
  }
}
layer {
  name: "conv4_3_norm_mbox_loc_perm"
  type: "Permute"
  bottom: "conv4_3_norm_mbox_loc"
  top: "conv4_3_norm_mbox_loc_perm"
  permute_param {
    order: 0
    order: 2
    order: 3
    order: 1
  }
}
layer {
  name: "conv4_3_norm_mbox_loc_flat"
  type: "Flatten"
  bottom: "conv4_3_norm_mbox_loc_perm"
  top: "conv4_3_norm_mbox_loc_flat"
  flatten_param {
    axis: 1
  }
}
layer {
  name: "conv4_3_norm_mbox_conf"
  type: "Convolution"
  bottom: "conv4_3_norm"
  top: "conv4_3_norm_mbox_conf"
  param {
    lr_mult: 1
    decay_mult: 1
  }
  param {
    lr_mult: 2
    decay_mult: 0
  }
  convolution_param {
    num_output: 12
    pad: 1
    kernel_size: 3
    stride: 1
    weight_filler {
      type: "xavier"
    }
    bias_filler {
      type: "constant"
      value: 0
    }
  }
}
layer {
  name: "conv4_3_norm_mbox_conf_perm"
  type: "Permute"
  bottom: "conv4_3_norm_mbox_conf"
  top: "conv4_3_norm_mbox_conf_perm"
  permute_param {
    order: 0
    order: 2
    order: 3
    order: 1
  }
}
layer {
  name: "conv4_3_norm_mbox_conf_flat"
  type: "Flatten"
  bottom: "conv4_3_norm_mbox_conf_perm"
  top: "conv4_3_norm_mbox_conf_flat"
  flatten_param {
    axis: 1
  }
}
layer {
  name: "conv4_3_norm_mbox_priorbox"
  type: "PriorBox"
  bottom: "conv4_3_norm"
  bottom: "data"
  top: "conv4_3_norm_mbox_priorbox"
  prior_box_param {
    min_size: 30
    max_size: 60
    aspect_ratio: 2
    flip: true
    clip: false
    variance: 0.1
    variance: 0.1
    variance: 0.2
    variance: 0.2
    step: 8
    offset: 0.5
  }
}
layer {
  name: "fc7_mbox_loc"
  type: "Convolution"
  bottom: "fc7"
  top: "fc7_mbox_loc"
  param {
    lr_mult: 1
    decay_mult: 1
  }
  param {
    lr_mult: 2
    decay_mult: 0
  }
  convolution_param {
    num_output: 24
    pad: 1
    kernel_size: 3
    stride: 1
    weight_filler {
      type: "xavier"
    }
    bias_filler {
      type: "constant"
      value: 0
    }
  }
}
layer {
  name: "fc7_mbox_loc_perm"
  type: "Permute"
  bottom: "fc7_mbox_loc"
  top: "fc7_mbox_loc_perm"
  permute_param {
    order: 0
    order: 2
    order: 3
    order: 1
  }
}
layer {
  name: "fc7_mbox_loc_flat"
  type: "Flatten"
  bottom: "fc7_mbox_loc_perm"
  top: "fc7_mbox_loc_flat"
  flatten_param {
    axis: 1
  }
}
layer {
  name: "fc7_mbox_conf"
  type: "Convolution"
  bottom: "fc7"
  top: "fc7_mbox_conf"
  param {
    lr_mult: 1
    decay_mult: 1
  }
  param {
    lr_mult: 2
    decay_mult: 0
  }
  convolution_param {
    num_output: 18
    pad: 1
    kernel_size: 3
    stride: 1
    weight_filler {
      type: "xavier"
    }
    bias_filler {
      type: "constant"
      value: 0
    }
  }
}
layer {
  name: "fc7_mbox_conf_perm"
  type: "Permute"
  bottom: "fc7_mbox_conf"
  top: "fc7_mbox_conf_perm"
  permute_param {
    order: 0
    order: 2
    order: 3
    order: 1
  }
}
layer {
  name: "fc7_mbox_conf_flat"
  type: "Flatten"
  bottom: "fc7_mbox_conf_perm"
  top: "fc7_mbox_conf_flat"
  flatten_param {
    axis: 1
  }
}
layer {
  name: "fc7_mbox_priorbox"
  type: "PriorBox"
  bottom: "fc7"
  bottom: "data"
  top: "fc7_mbox_priorbox"
  prior_box_param {
    min_size: 60
    max_size: 111
    aspect_ratio: 2
    aspect_ratio: 3
    flip: true
    clip: false
    variance: 0.1
    variance: 0.1
    variance: 0.2
    variance: 0.2
    step: 16
    offset: 0.5
  }
}
layer {
  name: "conv6_2_mbox_loc"
  type: "Convolution"
  bottom: "conv6_2"
  top: "conv6_2_mbox_loc"
  param {
    lr_mult: 1
    decay_mult: 1
  }
  param {
    lr_mult: 2
    decay_mult: 0
  }
  convolution_param {
    num_output: 24
    pad: 1
    kernel_size: 3
    stride: 1
    weight_filler {
      type: "xavier"
    }
    bias_filler {
      type: "constant"
      value: 0
    }
  }
}
layer {
  name: "conv6_2_mbox_loc_perm"
  type: "Permute"
  bottom: "conv6_2_mbox_loc"
  top: "conv6_2_mbox_loc_perm"
  permute_param {
    order: 0
    order: 2
    order: 3
    order: 1
  }
}
layer {
  name: "conv6_2_mbox_loc_flat"
  type: "Flatten"
  bottom: "conv6_2_mbox_loc_perm"
  top: "conv6_2_mbox_loc_flat"
  flatten_param {
    axis: 1
  }
}
layer {
  name: "conv6_2_mbox_conf"
  type: "Convolution"
  bottom: "conv6_2"
  top: "conv6_2_mbox_conf"
  param {
    lr_mult: 1
    decay_mult: 1
  }
  param {
    lr_mult: 2
    decay_mult: 0
  }
  convolution_param {
    num_output: 18
    pad: 1
    kernel_size: 3
    stride: 1
    weight_filler {
      type: "xavier"
    }
    bias_filler {
      type: "constant"
      value: 0
    }
  }
}
layer {
  name: "conv6_2_mbox_conf_perm"
  type: "Permute"
  bottom: "conv6_2_mbox_conf"
  top: "conv6_2_mbox_conf_perm"
  permute_param {
    order: 0
    order: 2
    order: 3
    order: 1
  }
}
layer {
  name: "conv6_2_mbox_conf_flat"
  type: "Flatten"
  bottom: "conv6_2_mbox_conf_perm"
  top: "conv6_2_mbox_conf_flat"
  flatten_param {
    axis: 1
  }
}
layer {
  name: "conv6_2_mbox_priorbox"
  type: "PriorBox"
  bottom: "conv6_2"
  bottom: "data"
  top: "conv6_2_mbox_priorbox"
  prior_box_param {
    min_size: 111
    max_size: 162
    aspect_ratio: 2
    aspect_ratio: 3
    flip: true
    clip: false
    variance: 0.1
    variance: 0.1
    variance: 0.2
    variance: 0.2
    step: 32
    offset: 0.5
  }
}
layer {
  name: "conv7_2_mbox_loc"
  type: "Convolution"
  bottom: "conv7_2"
  top: "conv7_2_mbox_loc"
  param {
    lr_mult: 1
    decay_mult: 1
  }
  param {
    lr_mult: 2
    decay_mult: 0
  }
  convolution_param {
    num_output: 24
    pad: 1
    kernel_size: 3
    stride: 1
    weight_filler {
      type: "xavier"
    }
    bias_filler {
      type: "constant"
      value: 0
    }
  }
}
layer {
  name: "conv7_2_mbox_loc_perm"
  type: "Permute"
  bottom: "conv7_2_mbox_loc"
  top: "conv7_2_mbox_loc_perm"
  permute_param {
    order: 0
    order: 2
    order: 3
    order: 1
  }
}
layer {
  name: "conv7_2_mbox_loc_flat"
  type: "Flatten"
  bottom: "conv7_2_mbox_loc_perm"
  top: "conv7_2_mbox_loc_flat"
  flatten_param {
    axis: 1
  }
}
layer {
  name: "conv7_2_mbox_conf"
  type: "Convolution"
  bottom: "conv7_2"
  top: "conv7_2_mbox_conf"
  param {
    lr_mult: 1
    decay_mult: 1
  }
  param {
    lr_mult: 2
    decay_mult: 0
  }
  convolution_param {
    num_output: 18
    pad: 1
    kernel_size: 3
    stride: 1
    weight_filler {
      type: "xavier"
    }
    bias_filler {
      type: "constant"
      value: 0
    }
  }
}
layer {
  name: "conv7_2_mbox_conf_perm"
  type: "Permute"
  bottom: "conv7_2_mbox_conf"
  top: "conv7_2_mbox_conf_perm"
  permute_param {
    order: 0
    order: 2
    order: 3
    order: 1
  }
}
layer {
  name: "conv7_2_mbox_conf_flat"
  type: "Flatten"
  bottom: "conv7_2_mbox_conf_perm"
  top: "conv7_2_mbox_conf_flat"
  flatten_param {
    axis: 1
  }
}
layer {
  name: "conv7_2_mbox_priorbox"
  type: "PriorBox"
  bottom: "conv7_2"
  bottom: "data"
  top: "conv7_2_mbox_priorbox"
  prior_box_param {
    min_size: 162
    max_size: 213
    aspect_ratio: 2
    aspect_ratio: 3
    flip: true
    clip: false
    variance: 0.1
    variance: 0.1
    variance: 0.2
    variance: 0.2
    step: 64
    offset: 0.5
  }
}
layer {
  name: "conv8_2_mbox_loc"
  type: "Convolution"
  bottom: "conv8_2"
  top: "conv8_2_mbox_loc"
  param {
    lr_mult: 1
    decay_mult: 1
  }
  param {
    lr_mult: 2
    decay_mult: 0
  }
  convolution_param {
    num_output: 16
    pad: 1
    kernel_size: 3
    stride: 1
    weight_filler {
      type: "xavier"
    }
    bias_filler {
      type: "constant"
      value: 0
    }
  }
}
layer {
  name: "conv8_2_mbox_loc_perm"
  type: "Permute"
  bottom: "conv8_2_mbox_loc"
  top: "conv8_2_mbox_loc_perm"
  permute_param {
    order: 0
    order: 2
    order: 3
    order: 1
  }
}
layer {
  name: "conv8_2_mbox_loc_flat"
  type: "Flatten"
  bottom: "conv8_2_mbox_loc_perm"
  top: "conv8_2_mbox_loc_flat"
  flatten_param {
    axis: 1
  }
}
layer {
  name: "conv8_2_mbox_conf"
  type: "Convolution"
  bottom: "conv8_2"
  top: "conv8_2_mbox_conf"
  param {
    lr_mult: 1
    decay_mult: 1
  }
  param {
    lr_mult: 2
    decay_mult: 0
  }
  convolution_param {
    num_output: 12
    pad: 1
    kernel_size: 3
    stride: 1
    weight_filler {
      type: "xavier"
    }
    bias_filler {
      type: "constant"
      value: 0
    }
  }
}
layer {
  name: "conv8_2_mbox_conf_perm"
  type: "Permute"
  bottom: "conv8_2_mbox_conf"
  top: "conv8_2_mbox_conf_perm"
  permute_param {
    order: 0
    order: 2
    order: 3
    order: 1
  }
}
layer {
  name: "conv8_2_mbox_conf_flat"
  type: "Flatten"
  bottom: "conv8_2_mbox_conf_perm"
  top: "conv8_2_mbox_conf_flat"
  flatten_param {
    axis: 1
  }
}
layer {
  name: "conv8_2_mbox_priorbox"
  type: "PriorBox"
  bottom: "conv8_2"
  bottom: "data"
  top: "conv8_2_mbox_priorbox"
  prior_box_param {
    min_size: 213
    max_size: 264
    aspect_ratio: 2
    flip: true
    clip: false
    variance: 0.1
    variance: 0.1
    variance: 0.2
    variance: 0.2
    step: 100
    offset: 0.5
  }
}
layer {
  name: "conv9_2_mbox_loc"
  type: "Convolution"
  bottom: "conv9_2"
  top: "conv9_2_mbox_loc"
  param {
    lr_mult: 1
    decay_mult: 1
  }
  param {
    lr_mult: 2
    decay_mult: 0
  }
  convolution_param {
    num_output: 16
    pad: 1
    kernel_size: 3
    stride: 1
    weight_filler {
      type: "xavier"
    }
    bias_filler {
      type: "constant"
      value: 0
    }
  }
}
layer {
  name: "conv9_2_mbox_loc_perm"
  type: "Permute"
  bottom: "conv9_2_mbox_loc"
  top: "conv9_2_mbox_loc_perm"
  permute_param {
    order: 0
    order: 2
    order: 3
    order: 1
  }
}
layer {
  name: "conv9_2_mbox_loc_flat"
  type: "Flatten"
  bottom: "conv9_2_mbox_loc_perm"
  top: "conv9_2_mbox_loc_flat"
  flatten_param {
    axis: 1
  }
}
layer {
  name: "conv9_2_mbox_conf"
  type: "Convolution"
  bottom: "conv9_2"
  top: "conv9_2_mbox_conf"
  param {
    lr_mult: 1
    decay_mult: 1
  }
  param {
    lr_mult: 2
    decay_mult: 0
  }
  convolution_param {
    num_output: 12
    pad: 1
    kernel_size: 3
    stride: 1
    weight_filler {
      type: "xavier"
    }
    bias_filler {
      type: "constant"
      value: 0
    }
  }
}
layer {
  name: "conv9_2_mbox_conf_perm"
  type: "Permute"
  bottom: "conv9_2_mbox_conf"
  top: "conv9_2_mbox_conf_perm"
  permute_param {
    order: 0
    order: 2
    order: 3
    order: 1
  }
}
layer {
  name: "conv9_2_mbox_conf_flat"
  type: "Flatten"
  bottom: "conv9_2_mbox_conf_perm"
  top: "conv9_2_mbox_conf_flat"
  flatten_param {
    axis: 1
  }
}
layer {
  name: "conv9_2_mbox_priorbox"
  type: "PriorBox"
  bottom: "conv9_2"
  bottom: "data"
  top: "conv9_2_mbox_priorbox"
  prior_box_param {
    min_size: 264
    max_size: 315
    aspect_ratio: 2
    flip: true
    clip: false
    variance: 0.1
    variance: 0.1
    variance: 0.2
    variance: 0.2
    step: 300
    offset: 0.5
  }
}
layer {
  name: "mbox_loc"
  type: "Concat"
  bottom: "conv4_3_norm_mbox_loc_flat"
  bottom: "fc7_mbox_loc_flat"
  bottom: "conv6_2_mbox_loc_flat"
  bottom: "conv7_2_mbox_loc_flat"
  bottom: "conv8_2_mbox_loc_flat"
  bottom: "conv9_2_mbox_loc_flat"
  top: "mbox_loc"
  concat_param {
    axis: 1
  }
}
layer {
  name: "mbox_conf"
  type: "Concat"
  bottom: "conv4_3_norm_mbox_conf_flat"
  bottom: "fc7_mbox_conf_flat"
  bottom: "conv6_2_mbox_conf_flat"
  bottom: "conv7_2_mbox_conf_flat"
  bottom: "conv8_2_mbox_conf_flat"
  bottom: "conv9_2_mbox_conf_flat"
  top: "mbox_conf"
  concat_param {
    axis: 1
  }
}
layer {
  name: "mbox_priorbox"
  type: "Concat"
  bottom: "conv4_3_norm_mbox_priorbox"
  bottom: "fc7_mbox_priorbox"
  bottom: "conv6_2_mbox_priorbox"
  bottom: "conv7_2_mbox_priorbox"
  bottom: "conv8_2_mbox_priorbox"
  bottom: "conv9_2_mbox_priorbox"
  top: "mbox_priorbox"
  concat_param {
    axis: 2
  }
}
layer {
  name: "mbox_loss"
  type: "MultiBoxLoss"
  bottom: "mbox_loc"
  bottom: "mbox_conf"
  bottom: "mbox_priorbox"
  bottom: "label"
  top: "mbox_loss"
  include {
    phase: TRAIN
  }
  propagate_down: true
  propagate_down: true
  propagate_down: false
  propagate_down: false
  loss_param {
    normalization: VALID
  }
  multibox_loss_param {
    loc_loss_type: SMOOTH_L1
    conf_loss_type: SOFTMAX
    loc_weight: 1
    num_classes: 3
    share_location: true
    match_type: PER_PREDICTION
    overlap_threshold: 0.5
    use_prior_for_matching: true
    background_label_id: 0
    use_difficult_gt: true
    neg_pos_ratio: 3
    neg_overlap: 0.5
    code_type: CENTER_SIZE
    ignore_cross_boundary_bbox: false
    mining_type: MAX_NEGATIVE
  }
}
I1226 10:39:27.419643 48847 layer_factory.hpp:77] Creating layer data
I1226 10:39:27.420450 48847 net.cpp:100] Creating Layer data
I1226 10:39:27.420477 48847 net.cpp:408] data -> data
I1226 10:39:27.420541 48847 net.cpp:408] data -> label
I1226 10:39:27.460638 48910 db_lmdb.cpp:35] Opened lmdb examples/VOC0712/VOC0712_trainval_lmdb
I1226 10:39:27.529659 48847 annotated_data_layer.cpp:62] output data size: 8,3,300,300
I1226 10:39:27.555284 48847 net.cpp:150] Setting up data
I1226 10:39:27.555336 48847 net.cpp:157] Top shape: 8 3 300 300 (2160000)
I1226 10:39:27.555378 48847 net.cpp:157] Top shape: 1 1 2 8 (16)
I1226 10:39:27.555384 48847 net.cpp:165] Memory required for data: 8640064
I1226 10:39:27.555402 48847 layer_factory.hpp:77] Creating layer data_data_0_split
I1226 10:39:27.555426 48847 net.cpp:100] Creating Layer data_data_0_split
I1226 10:39:27.555436 48847 net.cpp:434] data_data_0_split <- data
I1226 10:39:27.555460 48847 net.cpp:408] data_data_0_split -> data_data_0_split_0
I1226 10:39:27.555479 48847 net.cpp:408] data_data_0_split -> data_data_0_split_1
I1226 10:39:27.555490 48847 net.cpp:408] data_data_0_split -> data_data_0_split_2
I1226 10:39:27.555502 48847 net.cpp:408] data_data_0_split -> data_data_0_split_3
I1226 10:39:27.555513 48847 net.cpp:408] data_data_0_split -> data_data_0_split_4
I1226 10:39:27.555526 48847 net.cpp:408] data_data_0_split -> data_data_0_split_5
I1226 10:39:27.555534 48847 net.cpp:408] data_data_0_split -> data_data_0_split_6
I1226 10:39:27.565726 48847 net.cpp:150] Setting up data_data_0_split
I1226 10:39:27.565779 48847 net.cpp:157] Top shape: 8 3 300 300 (2160000)
I1226 10:39:27.565786 48847 net.cpp:157] Top shape: 8 3 300 300 (2160000)
I1226 10:39:27.565793 48847 net.cpp:157] Top shape: 8 3 300 300 (2160000)
I1226 10:39:27.565800 48847 net.cpp:157] Top shape: 8 3 300 300 (2160000)
I1226 10:39:27.565806 48847 net.cpp:157] Top shape: 8 3 300 300 (2160000)
I1226 10:39:27.565812 48847 net.cpp:157] Top shape: 8 3 300 300 (2160000)
I1226 10:39:27.565817 48847 net.cpp:157] Top shape: 8 3 300 300 (2160000)
I1226 10:39:27.565821 48847 net.cpp:165] Memory required for data: 69120064
I1226 10:39:27.565831 48847 layer_factory.hpp:77] Creating layer conv1_1
I1226 10:39:27.565871 48847 net.cpp:100] Creating Layer conv1_1
I1226 10:39:27.565881 48847 net.cpp:434] conv1_1 <- data_data_0_split_0
I1226 10:39:27.565894 48847 net.cpp:408] conv1_1 -> conv1_1
I1226 10:39:27.571638 48847 net.cpp:150] Setting up conv1_1
I1226 10:39:27.571681 48847 net.cpp:157] Top shape: 8 64 300 300 (46080000)
I1226 10:39:27.571686 48847 net.cpp:165] Memory required for data: 253440064
I1226 10:39:27.571717 48847 layer_factory.hpp:77] Creating layer relu1_1
I1226 10:39:27.571733 48847 net.cpp:100] Creating Layer relu1_1
I1226 10:39:27.571740 48847 net.cpp:434] relu1_1 <- conv1_1
I1226 10:39:27.571753 48847 net.cpp:395] relu1_1 -> conv1_1 (in-place)
I1226 10:39:27.571769 48847 net.cpp:150] Setting up relu1_1
I1226 10:39:27.571777 48847 net.cpp:157] Top shape: 8 64 300 300 (46080000)
I1226 10:39:27.571782 48847 net.cpp:165] Memory required for data: 437760064
I1226 10:39:27.571786 48847 layer_factory.hpp:77] Creating layer conv1_2
I1226 10:39:27.571806 48847 net.cpp:100] Creating Layer conv1_2
I1226 10:39:27.571813 48847 net.cpp:434] conv1_2 <- conv1_1
I1226 10:39:27.571821 48847 net.cpp:408] conv1_2 -> conv1_2
I1226 10:39:27.573985 48847 net.cpp:150] Setting up conv1_2
I1226 10:39:27.574007 48847 net.cpp:157] Top shape: 8 64 300 300 (46080000)
I1226 10:39:27.574012 48847 net.cpp:165] Memory required for data: 622080064
I1226 10:39:27.574025 48847 layer_factory.hpp:77] Creating layer relu1_2
I1226 10:39:27.574038 48847 net.cpp:100] Creating Layer relu1_2
I1226 10:39:27.574044 48847 net.cpp:434] relu1_2 <- conv1_2
I1226 10:39:27.574054 48847 net.cpp:395] relu1_2 -> conv1_2 (in-place)
I1226 10:39:27.574062 48847 net.cpp:150] Setting up relu1_2
I1226 10:39:27.574069 48847 net.cpp:157] Top shape: 8 64 300 300 (46080000)
I1226 10:39:27.574074 48847 net.cpp:165] Memory required for data: 806400064
I1226 10:39:27.574077 48847 layer_factory.hpp:77] Creating layer pool1
I1226 10:39:27.574085 48847 net.cpp:100] Creating Layer pool1
I1226 10:39:27.574089 48847 net.cpp:434] pool1 <- conv1_2
I1226 10:39:27.574100 48847 net.cpp:408] pool1 -> pool1
I1226 10:39:27.574182 48847 net.cpp:150] Setting up pool1
I1226 10:39:27.574193 48847 net.cpp:157] Top shape: 8 64 150 150 (11520000)
I1226 10:39:27.574196 48847 net.cpp:165] Memory required for data: 852480064
I1226 10:39:27.574200 48847 layer_factory.hpp:77] Creating layer conv2_1
I1226 10:39:27.574245 48847 net.cpp:100] Creating Layer conv2_1
I1226 10:39:27.574252 48847 net.cpp:434] conv2_1 <- pool1
I1226 10:39:27.574259 48847 net.cpp:408] conv2_1 -> conv2_1
I1226 10:39:27.575193 48847 net.cpp:150] Setting up conv2_1
I1226 10:39:27.575206 48847 net.cpp:157] Top shape: 8 128 150 150 (23040000)
I1226 10:39:27.575209 48847 net.cpp:165] Memory required for data: 944640064
I1226 10:39:27.575220 48847 layer_factory.hpp:77] Creating layer relu2_1
I1226 10:39:27.575232 48847 net.cpp:100] Creating Layer relu2_1
I1226 10:39:27.575239 48847 net.cpp:434] relu2_1 <- conv2_1
I1226 10:39:27.575245 48847 net.cpp:395] relu2_1 -> conv2_1 (in-place)
I1226 10:39:27.575253 48847 net.cpp:150] Setting up relu2_1
I1226 10:39:27.575259 48847 net.cpp:157] Top shape: 8 128 150 150 (23040000)
I1226 10:39:27.575264 48847 net.cpp:165] Memory required for data: 1036800064
I1226 10:39:27.575268 48847 layer_factory.hpp:77] Creating layer conv2_2
I1226 10:39:27.575280 48847 net.cpp:100] Creating Layer conv2_2
I1226 10:39:27.575285 48847 net.cpp:434] conv2_2 <- conv2_1
I1226 10:39:27.575294 48847 net.cpp:408] conv2_2 -> conv2_2
I1226 10:39:27.578137 48847 net.cpp:150] Setting up conv2_2
I1226 10:39:27.578157 48847 net.cpp:157] Top shape: 8 128 150 150 (23040000)
I1226 10:39:27.578161 48847 net.cpp:165] Memory required for data: 1128960064
I1226 10:39:27.578171 48847 layer_factory.hpp:77] Creating layer relu2_2
I1226 10:39:27.578179 48847 net.cpp:100] Creating Layer relu2_2
I1226 10:39:27.578183 48847 net.cpp:434] relu2_2 <- conv2_2
I1226 10:39:27.578191 48847 net.cpp:395] relu2_2 -> conv2_2 (in-place)
I1226 10:39:27.578202 48847 net.cpp:150] Setting up relu2_2
I1226 10:39:27.578208 48847 net.cpp:157] Top shape: 8 128 150 150 (23040000)
I1226 10:39:27.578212 48847 net.cpp:165] Memory required for data: 1221120064
I1226 10:39:27.578215 48847 layer_factory.hpp:77] Creating layer pool2
I1226 10:39:27.578223 48847 net.cpp:100] Creating Layer pool2
I1226 10:39:27.578227 48847 net.cpp:434] pool2 <- conv2_2
I1226 10:39:27.578235 48847 net.cpp:408] pool2 -> pool2
I1226 10:39:27.578284 48847 net.cpp:150] Setting up pool2
I1226 10:39:27.578292 48847 net.cpp:157] Top shape: 8 128 75 75 (5760000)
I1226 10:39:27.578296 48847 net.cpp:165] Memory required for data: 1244160064
I1226 10:39:27.578300 48847 layer_factory.hpp:77] Creating layer conv3_1
I1226 10:39:27.578311 48847 net.cpp:100] Creating Layer conv3_1
I1226 10:39:27.578318 48847 net.cpp:434] conv3_1 <- pool2
I1226 10:39:27.578327 48847 net.cpp:408] conv3_1 -> conv3_1
I1226 10:39:27.583683 48847 net.cpp:150] Setting up conv3_1
I1226 10:39:27.583719 48847 net.cpp:157] Top shape: 8 256 75 75 (11520000)
I1226 10:39:27.583724 48847 net.cpp:165] Memory required for data: 1290240064
I1226 10:39:27.583745 48847 layer_factory.hpp:77] Creating layer relu3_1
I1226 10:39:27.583755 48847 net.cpp:100] Creating Layer relu3_1
I1226 10:39:27.583761 48847 net.cpp:434] relu3_1 <- conv3_1
I1226 10:39:27.583770 48847 net.cpp:395] relu3_1 -> conv3_1 (in-place)
I1226 10:39:27.583781 48847 net.cpp:150] Setting up relu3_1
I1226 10:39:27.583786 48847 net.cpp:157] Top shape: 8 256 75 75 (11520000)
I1226 10:39:27.583791 48847 net.cpp:165] Memory required for data: 1336320064
I1226 10:39:27.583794 48847 layer_factory.hpp:77] Creating layer conv3_2
I1226 10:39:27.583809 48847 net.cpp:100] Creating Layer conv3_2
I1226 10:39:27.583814 48847 net.cpp:434] conv3_2 <- conv3_1
I1226 10:39:27.583823 48847 net.cpp:408] conv3_2 -> conv3_2
I1226 10:39:27.591536 48847 net.cpp:150] Setting up conv3_2
I1226 10:39:27.591576 48847 net.cpp:157] Top shape: 8 256 75 75 (11520000)
I1226 10:39:27.591583 48847 net.cpp:165] Memory required for data: 1382400064
I1226 10:39:27.591600 48847 layer_factory.hpp:77] Creating layer relu3_2
I1226 10:39:27.591619 48847 net.cpp:100] Creating Layer relu3_2
I1226 10:39:27.591627 48847 net.cpp:434] relu3_2 <- conv3_2
I1226 10:39:27.591639 48847 net.cpp:395] relu3_2 -> conv3_2 (in-place)
I1226 10:39:27.591656 48847 net.cpp:150] Setting up relu3_2
I1226 10:39:27.591668 48847 net.cpp:157] Top shape: 8 256 75 75 (11520000)
I1226 10:39:27.591708 48847 net.cpp:165] Memory required for data: 1428480064
I1226 10:39:27.591715 48847 layer_factory.hpp:77] Creating layer conv3_3
I1226 10:39:27.591747 48847 net.cpp:100] Creating Layer conv3_3
I1226 10:39:27.591756 48847 net.cpp:434] conv3_3 <- conv3_2
I1226 10:39:27.591769 48847 net.cpp:408] conv3_3 -> conv3_3
I1226 10:39:27.602442 48847 net.cpp:150] Setting up conv3_3
I1226 10:39:27.602466 48847 net.cpp:157] Top shape: 8 256 75 75 (11520000)
I1226 10:39:27.602473 48847 net.cpp:165] Memory required for data: 1474560064
I1226 10:39:27.602484 48847 layer_factory.hpp:77] Creating layer relu3_3
I1226 10:39:27.602495 48847 net.cpp:100] Creating Layer relu3_3
I1226 10:39:27.602504 48847 net.cpp:434] relu3_3 <- conv3_3
I1226 10:39:27.602515 48847 net.cpp:395] relu3_3 -> conv3_3 (in-place)
I1226 10:39:27.602526 48847 net.cpp:150] Setting up relu3_3
I1226 10:39:27.602535 48847 net.cpp:157] Top shape: 8 256 75 75 (11520000)
I1226 10:39:27.602538 48847 net.cpp:165] Memory required for data: 1520640064
I1226 10:39:27.602545 48847 layer_factory.hpp:77] Creating layer pool3
I1226 10:39:27.602558 48847 net.cpp:100] Creating Layer pool3
I1226 10:39:27.602563 48847 net.cpp:434] pool3 <- conv3_3
I1226 10:39:27.602572 48847 net.cpp:408] pool3 -> pool3
I1226 10:39:27.602646 48847 net.cpp:150] Setting up pool3
I1226 10:39:27.602658 48847 net.cpp:157] Top shape: 8 256 38 38 (2957312)
I1226 10:39:27.602663 48847 net.cpp:165] Memory required for data: 1532469312
I1226 10:39:27.602669 48847 layer_factory.hpp:77] Creating layer conv4_1
I1226 10:39:27.602685 48847 net.cpp:100] Creating Layer conv4_1
I1226 10:39:27.602694 48847 net.cpp:434] conv4_1 <- pool3
I1226 10:39:27.602707 48847 net.cpp:408] conv4_1 -> conv4_1
I1226 10:39:27.622141 48847 net.cpp:150] Setting up conv4_1
I1226 10:39:27.622166 48847 net.cpp:157] Top shape: 8 512 38 38 (5914624)
I1226 10:39:27.622172 48847 net.cpp:165] Memory required for data: 1556127808
I1226 10:39:27.622184 48847 layer_factory.hpp:77] Creating layer relu4_1
I1226 10:39:27.622195 48847 net.cpp:100] Creating Layer relu4_1
I1226 10:39:27.622202 48847 net.cpp:434] relu4_1 <- conv4_1
I1226 10:39:27.622215 48847 net.cpp:395] relu4_1 -> conv4_1 (in-place)
I1226 10:39:27.622227 48847 net.cpp:150] Setting up relu4_1
I1226 10:39:27.622236 48847 net.cpp:157] Top shape: 8 512 38 38 (5914624)
I1226 10:39:27.622241 48847 net.cpp:165] Memory required for data: 1579786304
I1226 10:39:27.622246 48847 layer_factory.hpp:77] Creating layer conv4_2
I1226 10:39:27.622259 48847 net.cpp:100] Creating Layer conv4_2
I1226 10:39:27.622267 48847 net.cpp:434] conv4_2 <- conv4_1
I1226 10:39:27.622280 48847 net.cpp:408] conv4_2 -> conv4_2
I1226 10:39:27.650908 48847 net.cpp:150] Setting up conv4_2
I1226 10:39:27.650959 48847 net.cpp:157] Top shape: 8 512 38 38 (5914624)
I1226 10:39:27.650964 48847 net.cpp:165] Memory required for data: 1603444800
I1226 10:39:27.650990 48847 layer_factory.hpp:77] Creating layer relu4_2
I1226 10:39:27.651005 48847 net.cpp:100] Creating Layer relu4_2
I1226 10:39:27.651011 48847 net.cpp:434] relu4_2 <- conv4_2
I1226 10:39:27.651021 48847 net.cpp:395] relu4_2 -> conv4_2 (in-place)
I1226 10:39:27.651036 48847 net.cpp:150] Setting up relu4_2
I1226 10:39:27.651046 48847 net.cpp:157] Top shape: 8 512 38 38 (5914624)
I1226 10:39:27.651048 48847 net.cpp:165] Memory required for data: 1627103296
I1226 10:39:27.651053 48847 layer_factory.hpp:77] Creating layer conv4_3
I1226 10:39:27.651072 48847 net.cpp:100] Creating Layer conv4_3
I1226 10:39:27.651077 48847 net.cpp:434] conv4_3 <- conv4_2
I1226 10:39:27.651087 48847 net.cpp:408] conv4_3 -> conv4_3
I1226 10:39:27.675711 48847 net.cpp:150] Setting up conv4_3
I1226 10:39:27.675756 48847 net.cpp:157] Top shape: 8 512 38 38 (5914624)
I1226 10:39:27.675761 48847 net.cpp:165] Memory required for data: 1650761792
I1226 10:39:27.675774 48847 layer_factory.hpp:77] Creating layer relu4_3
I1226 10:39:27.675788 48847 net.cpp:100] Creating Layer relu4_3
I1226 10:39:27.675796 48847 net.cpp:434] relu4_3 <- conv4_3
I1226 10:39:27.675808 48847 net.cpp:395] relu4_3 -> conv4_3 (in-place)
I1226 10:39:27.675854 48847 net.cpp:150] Setting up relu4_3
I1226 10:39:27.675863 48847 net.cpp:157] Top shape: 8 512 38 38 (5914624)
I1226 10:39:27.675866 48847 net.cpp:165] Memory required for data: 1674420288
I1226 10:39:27.675870 48847 layer_factory.hpp:77] Creating layer conv4_3_relu4_3_0_split
I1226 10:39:27.675878 48847 net.cpp:100] Creating Layer conv4_3_relu4_3_0_split
I1226 10:39:27.675880 48847 net.cpp:434] conv4_3_relu4_3_0_split <- conv4_3
I1226 10:39:27.675889 48847 net.cpp:408] conv4_3_relu4_3_0_split -> conv4_3_relu4_3_0_split_0
I1226 10:39:27.675899 48847 net.cpp:408] conv4_3_relu4_3_0_split -> conv4_3_relu4_3_0_split_1
I1226 10:39:27.675946 48847 net.cpp:150] Setting up conv4_3_relu4_3_0_split
I1226 10:39:27.675954 48847 net.cpp:157] Top shape: 8 512 38 38 (5914624)
I1226 10:39:27.675961 48847 net.cpp:157] Top shape: 8 512 38 38 (5914624)
I1226 10:39:27.675963 48847 net.cpp:165] Memory required for data: 1721737280
I1226 10:39:27.675967 48847 layer_factory.hpp:77] Creating layer pool4
I1226 10:39:27.675976 48847 net.cpp:100] Creating Layer pool4
I1226 10:39:27.675983 48847 net.cpp:434] pool4 <- conv4_3_relu4_3_0_split_0
I1226 10:39:27.675989 48847 net.cpp:408] pool4 -> pool4
I1226 10:39:27.676033 48847 net.cpp:150] Setting up pool4
I1226 10:39:27.676039 48847 net.cpp:157] Top shape: 8 512 19 19 (1478656)
I1226 10:39:27.676043 48847 net.cpp:165] Memory required for data: 1727651904
I1226 10:39:27.676048 48847 layer_factory.hpp:77] Creating layer conv5_1
I1226 10:39:27.676060 48847 net.cpp:100] Creating Layer conv5_1
I1226 10:39:27.676065 48847 net.cpp:434] conv5_1 <- pool4
I1226 10:39:27.676075 48847 net.cpp:408] conv5_1 -> conv5_1
I1226 10:39:27.698434 48847 net.cpp:150] Setting up conv5_1
I1226 10:39:27.698473 48847 net.cpp:157] Top shape: 8 512 19 19 (1478656)
I1226 10:39:27.698477 48847 net.cpp:165] Memory required for data: 1733566528
I1226 10:39:27.698490 48847 layer_factory.hpp:77] Creating layer relu5_1
I1226 10:39:27.698503 48847 net.cpp:100] Creating Layer relu5_1
I1226 10:39:27.698510 48847 net.cpp:434] relu5_1 <- conv5_1
I1226 10:39:27.698523 48847 net.cpp:395] relu5_1 -> conv5_1 (in-place)
I1226 10:39:27.698536 48847 net.cpp:150] Setting up relu5_1
I1226 10:39:27.698544 48847 net.cpp:157] Top shape: 8 512 19 19 (1478656)
I1226 10:39:27.698546 48847 net.cpp:165] Memory required for data: 1739481152
I1226 10:39:27.698549 48847 layer_factory.hpp:77] Creating layer conv5_2
I1226 10:39:27.698563 48847 net.cpp:100] Creating Layer conv5_2
I1226 10:39:27.698568 48847 net.cpp:434] conv5_2 <- conv5_1
I1226 10:39:27.698575 48847 net.cpp:408] conv5_2 -> conv5_2
I1226 10:39:27.725078 48847 net.cpp:150] Setting up conv5_2
I1226 10:39:27.725127 48847 net.cpp:157] Top shape: 8 512 19 19 (1478656)
I1226 10:39:27.725134 48847 net.cpp:165] Memory required for data: 1745395776
I1226 10:39:27.725152 48847 layer_factory.hpp:77] Creating layer relu5_2
I1226 10:39:27.725170 48847 net.cpp:100] Creating Layer relu5_2
I1226 10:39:27.725180 48847 net.cpp:434] relu5_2 <- conv5_2
I1226 10:39:27.725193 48847 net.cpp:395] relu5_2 -> conv5_2 (in-place)
I1226 10:39:27.725209 48847 net.cpp:150] Setting up relu5_2
I1226 10:39:27.725220 48847 net.cpp:157] Top shape: 8 512 19 19 (1478656)
I1226 10:39:27.725227 48847 net.cpp:165] Memory required for data: 1751310400
I1226 10:39:27.725234 48847 layer_factory.hpp:77] Creating layer conv5_3
I1226 10:39:27.725253 48847 net.cpp:100] Creating Layer conv5_3
I1226 10:39:27.725262 48847 net.cpp:434] conv5_3 <- conv5_2
I1226 10:39:27.725277 48847 net.cpp:408] conv5_3 -> conv5_3
I1226 10:39:27.757789 48847 net.cpp:150] Setting up conv5_3
I1226 10:39:27.757819 48847 net.cpp:157] Top shape: 8 512 19 19 (1478656)
I1226 10:39:27.757825 48847 net.cpp:165] Memory required for data: 1757225024
I1226 10:39:27.757839 48847 layer_factory.hpp:77] Creating layer relu5_3
I1226 10:39:27.757867 48847 net.cpp:100] Creating Layer relu5_3
I1226 10:39:27.757876 48847 net.cpp:434] relu5_3 <- conv5_3
I1226 10:39:27.757886 48847 net.cpp:395] relu5_3 -> conv5_3 (in-place)
I1226 10:39:27.757932 48847 net.cpp:150] Setting up relu5_3
I1226 10:39:27.757943 48847 net.cpp:157] Top shape: 8 512 19 19 (1478656)
I1226 10:39:27.757947 48847 net.cpp:165] Memory required for data: 1763139648
I1226 10:39:27.757952 48847 layer_factory.hpp:77] Creating layer pool5
I1226 10:39:27.757963 48847 net.cpp:100] Creating Layer pool5
I1226 10:39:27.757968 48847 net.cpp:434] pool5 <- conv5_3
I1226 10:39:27.757977 48847 net.cpp:408] pool5 -> pool5
I1226 10:39:27.758044 48847 net.cpp:150] Setting up pool5
I1226 10:39:27.758055 48847 net.cpp:157] Top shape: 8 512 19 19 (1478656)
I1226 10:39:27.758060 48847 net.cpp:165] Memory required for data: 1769054272
I1226 10:39:27.758065 48847 layer_factory.hpp:77] Creating layer fc6
I1226 10:39:27.758083 48847 net.cpp:100] Creating Layer fc6
I1226 10:39:27.758091 48847 net.cpp:434] fc6 <- pool5
I1226 10:39:27.758103 48847 net.cpp:408] fc6 -> fc6
I1226 10:39:27.808967 48847 net.cpp:150] Setting up fc6
I1226 10:39:27.808998 48847 net.cpp:157] Top shape: 8 1024 19 19 (2957312)
I1226 10:39:27.809005 48847 net.cpp:165] Memory required for data: 1780883520
I1226 10:39:27.809016 48847 layer_factory.hpp:77] Creating layer relu6
I1226 10:39:27.809026 48847 net.cpp:100] Creating Layer relu6
I1226 10:39:27.809036 48847 net.cpp:434] relu6 <- fc6
I1226 10:39:27.809048 48847 net.cpp:395] relu6 -> fc6 (in-place)
I1226 10:39:27.809061 48847 net.cpp:150] Setting up relu6
I1226 10:39:27.809065 48847 net.cpp:157] Top shape: 8 1024 19 19 (2957312)
I1226 10:39:27.809069 48847 net.cpp:165] Memory required for data: 1792712768
I1226 10:39:27.809073 48847 layer_factory.hpp:77] Creating layer fc7
I1226 10:39:27.809087 48847 net.cpp:100] Creating Layer fc7
I1226 10:39:27.809092 48847 net.cpp:434] fc7 <- fc6
I1226 10:39:27.809098 48847 net.cpp:408] fc7 -> fc7
I1226 10:39:27.820397 48847 net.cpp:150] Setting up fc7
I1226 10:39:27.820415 48847 net.cpp:157] Top shape: 8 1024 19 19 (2957312)
I1226 10:39:27.820418 48847 net.cpp:165] Memory required for data: 1804542016
I1226 10:39:27.820426 48847 layer_factory.hpp:77] Creating layer relu7
I1226 10:39:27.820435 48847 net.cpp:100] Creating Layer relu7
I1226 10:39:27.820438 48847 net.cpp:434] relu7 <- fc7
I1226 10:39:27.820444 48847 net.cpp:395] relu7 -> fc7 (in-place)
I1226 10:39:27.820453 48847 net.cpp:150] Setting up relu7
I1226 10:39:27.820459 48847 net.cpp:157] Top shape: 8 1024 19 19 (2957312)
I1226 10:39:27.820463 48847 net.cpp:165] Memory required for data: 1816371264
I1226 10:39:27.820466 48847 layer_factory.hpp:77] Creating layer fc7_relu7_0_split
I1226 10:39:27.820477 48847 net.cpp:100] Creating Layer fc7_relu7_0_split
I1226 10:39:27.820482 48847 net.cpp:434] fc7_relu7_0_split <- fc7
I1226 10:39:27.820487 48847 net.cpp:408] fc7_relu7_0_split -> fc7_relu7_0_split_0
I1226 10:39:27.820497 48847 net.cpp:408] fc7_relu7_0_split -> fc7_relu7_0_split_1
I1226 10:39:27.820515 48847 net.cpp:408] fc7_relu7_0_split -> fc7_relu7_0_split_2
I1226 10:39:27.820526 48847 net.cpp:408] fc7_relu7_0_split -> fc7_relu7_0_split_3
I1226 10:39:27.820597 48847 net.cpp:150] Setting up fc7_relu7_0_split
I1226 10:39:27.820606 48847 net.cpp:157] Top shape: 8 1024 19 19 (2957312)
I1226 10:39:27.820612 48847 net.cpp:157] Top shape: 8 1024 19 19 (2957312)
I1226 10:39:27.820618 48847 net.cpp:157] Top shape: 8 1024 19 19 (2957312)
I1226 10:39:27.820622 48847 net.cpp:157] Top shape: 8 1024 19 19 (2957312)
I1226 10:39:27.820626 48847 net.cpp:165] Memory required for data: 1863688256
I1226 10:39:27.820631 48847 layer_factory.hpp:77] Creating layer conv6_1
I1226 10:39:27.820647 48847 net.cpp:100] Creating Layer conv6_1
I1226 10:39:27.820652 48847 net.cpp:434] conv6_1 <- fc7_relu7_0_split_0
I1226 10:39:27.820662 48847 net.cpp:408] conv6_1 -> conv6_1
I1226 10:39:27.824344 48847 net.cpp:150] Setting up conv6_1
I1226 10:39:27.824362 48847 net.cpp:157] Top shape: 8 256 19 19 (739328)
I1226 10:39:27.824367 48847 net.cpp:165] Memory required for data: 1866645568
I1226 10:39:27.824374 48847 layer_factory.hpp:77] Creating layer conv6_1_relu
I1226 10:39:27.824383 48847 net.cpp:100] Creating Layer conv6_1_relu
I1226 10:39:27.824412 48847 net.cpp:434] conv6_1_relu <- conv6_1
I1226 10:39:27.824419 48847 net.cpp:395] conv6_1_relu -> conv6_1 (in-place)
I1226 10:39:27.824427 48847 net.cpp:150] Setting up conv6_1_relu
I1226 10:39:27.824432 48847 net.cpp:157] Top shape: 8 256 19 19 (739328)
I1226 10:39:27.824436 48847 net.cpp:165] Memory required for data: 1869602880
I1226 10:39:27.824440 48847 layer_factory.hpp:77] Creating layer conv6_2
I1226 10:39:27.824451 48847 net.cpp:100] Creating Layer conv6_2
I1226 10:39:27.824460 48847 net.cpp:434] conv6_2 <- conv6_1
I1226 10:39:27.824470 48847 net.cpp:408] conv6_2 -> conv6_2
I1226 10:39:27.836349 48847 net.cpp:150] Setting up conv6_2
I1226 10:39:27.836369 48847 net.cpp:157] Top shape: 8 512 10 10 (409600)
I1226 10:39:27.836374 48847 net.cpp:165] Memory required for data: 1871241280
I1226 10:39:27.836392 48847 layer_factory.hpp:77] Creating layer conv6_2_relu
I1226 10:39:27.836402 48847 net.cpp:100] Creating Layer conv6_2_relu
I1226 10:39:27.836407 48847 net.cpp:434] conv6_2_relu <- conv6_2
I1226 10:39:27.836413 48847 net.cpp:395] conv6_2_relu -> conv6_2 (in-place)
I1226 10:39:27.836422 48847 net.cpp:150] Setting up conv6_2_relu
I1226 10:39:27.836427 48847 net.cpp:157] Top shape: 8 512 10 10 (409600)
I1226 10:39:27.836434 48847 net.cpp:165] Memory required for data: 1872879680
I1226 10:39:27.836438 48847 layer_factory.hpp:77] Creating layer conv6_2_conv6_2_relu_0_split
I1226 10:39:27.836447 48847 net.cpp:100] Creating Layer conv6_2_conv6_2_relu_0_split
I1226 10:39:27.836453 48847 net.cpp:434] conv6_2_conv6_2_relu_0_split <- conv6_2
I1226 10:39:27.836459 48847 net.cpp:408] conv6_2_conv6_2_relu_0_split -> conv6_2_conv6_2_relu_0_split_0
I1226 10:39:27.836467 48847 net.cpp:408] conv6_2_conv6_2_relu_0_split -> conv6_2_conv6_2_relu_0_split_1
I1226 10:39:27.836477 48847 net.cpp:408] conv6_2_conv6_2_relu_0_split -> conv6_2_conv6_2_relu_0_split_2
I1226 10:39:27.836485 48847 net.cpp:408] conv6_2_conv6_2_relu_0_split -> conv6_2_conv6_2_relu_0_split_3
I1226 10:39:27.836560 48847 net.cpp:150] Setting up conv6_2_conv6_2_relu_0_split
I1226 10:39:27.836568 48847 net.cpp:157] Top shape: 8 512 10 10 (409600)
I1226 10:39:27.836573 48847 net.cpp:157] Top shape: 8 512 10 10 (409600)
I1226 10:39:27.836577 48847 net.cpp:157] Top shape: 8 512 10 10 (409600)
I1226 10:39:27.836581 48847 net.cpp:157] Top shape: 8 512 10 10 (409600)
I1226 10:39:27.836585 48847 net.cpp:165] Memory required for data: 1879433280
I1226 10:39:27.836588 48847 layer_factory.hpp:77] Creating layer conv7_1
I1226 10:39:27.836602 48847 net.cpp:100] Creating Layer conv7_1
I1226 10:39:27.836608 48847 net.cpp:434] conv7_1 <- conv6_2_conv6_2_relu_0_split_0
I1226 10:39:27.836617 48847 net.cpp:408] conv7_1 -> conv7_1
I1226 10:39:27.837388 48847 net.cpp:150] Setting up conv7_1
I1226 10:39:27.837397 48847 net.cpp:157] Top shape: 8 128 10 10 (102400)
I1226 10:39:27.837401 48847 net.cpp:165] Memory required for data: 1879842880
I1226 10:39:27.837414 48847 layer_factory.hpp:77] Creating layer conv7_1_relu
I1226 10:39:27.837420 48847 net.cpp:100] Creating Layer conv7_1_relu
I1226 10:39:27.837424 48847 net.cpp:434] conv7_1_relu <- conv7_1
I1226 10:39:27.837431 48847 net.cpp:395] conv7_1_relu -> conv7_1 (in-place)
I1226 10:39:27.837438 48847 net.cpp:150] Setting up conv7_1_relu
I1226 10:39:27.837443 48847 net.cpp:157] Top shape: 8 128 10 10 (102400)
I1226 10:39:27.837446 48847 net.cpp:165] Memory required for data: 1880252480
I1226 10:39:27.837450 48847 layer_factory.hpp:77] Creating layer conv7_2
I1226 10:39:27.837457 48847 net.cpp:100] Creating Layer conv7_2
I1226 10:39:27.837461 48847 net.cpp:434] conv7_2 <- conv7_1
I1226 10:39:27.837469 48847 net.cpp:408] conv7_2 -> conv7_2
I1226 10:39:27.841832 48847 net.cpp:150] Setting up conv7_2
I1226 10:39:27.841847 48847 net.cpp:157] Top shape: 8 256 5 5 (51200)
I1226 10:39:27.841852 48847 net.cpp:165] Memory required for data: 1880457280
I1226 10:39:27.841859 48847 layer_factory.hpp:77] Creating layer conv7_2_relu
I1226 10:39:27.841867 48847 net.cpp:100] Creating Layer conv7_2_relu
I1226 10:39:27.841871 48847 net.cpp:434] conv7_2_relu <- conv7_2
I1226 10:39:27.841897 48847 net.cpp:395] conv7_2_relu -> conv7_2 (in-place)
I1226 10:39:27.841904 48847 net.cpp:150] Setting up conv7_2_relu
I1226 10:39:27.841909 48847 net.cpp:157] Top shape: 8 256 5 5 (51200)
I1226 10:39:27.841912 48847 net.cpp:165] Memory required for data: 1880662080
I1226 10:39:27.841917 48847 layer_factory.hpp:77] Creating layer conv7_2_conv7_2_relu_0_split
I1226 10:39:27.841922 48847 net.cpp:100] Creating Layer conv7_2_conv7_2_relu_0_split
I1226 10:39:27.841931 48847 net.cpp:434] conv7_2_conv7_2_relu_0_split <- conv7_2
I1226 10:39:27.841938 48847 net.cpp:408] conv7_2_conv7_2_relu_0_split -> conv7_2_conv7_2_relu_0_split_0
I1226 10:39:27.841945 48847 net.cpp:408] conv7_2_conv7_2_relu_0_split -> conv7_2_conv7_2_relu_0_split_1
I1226 10:39:27.841954 48847 net.cpp:408] conv7_2_conv7_2_relu_0_split -> conv7_2_conv7_2_relu_0_split_2
I1226 10:39:27.841962 48847 net.cpp:408] conv7_2_conv7_2_relu_0_split -> conv7_2_conv7_2_relu_0_split_3
I1226 10:39:27.842033 48847 net.cpp:150] Setting up conv7_2_conv7_2_relu_0_split
I1226 10:39:27.842041 48847 net.cpp:157] Top shape: 8 256 5 5 (51200)
I1226 10:39:27.842046 48847 net.cpp:157] Top shape: 8 256 5 5 (51200)
I1226 10:39:27.842051 48847 net.cpp:157] Top shape: 8 256 5 5 (51200)
I1226 10:39:27.842054 48847 net.cpp:157] Top shape: 8 256 5 5 (51200)
I1226 10:39:27.842064 48847 net.cpp:165] Memory required for data: 1881481280
I1226 10:39:27.842067 48847 layer_factory.hpp:77] Creating layer conv8_1
I1226 10:39:27.842078 48847 net.cpp:100] Creating Layer conv8_1
I1226 10:39:27.842084 48847 net.cpp:434] conv8_1 <- conv7_2_conv7_2_relu_0_split_0
I1226 10:39:27.842094 48847 net.cpp:408] conv8_1 -> conv8_1
I1226 10:39:27.842602 48847 net.cpp:150] Setting up conv8_1
I1226 10:39:27.842613 48847 net.cpp:157] Top shape: 8 128 5 5 (25600)
I1226 10:39:27.842617 48847 net.cpp:165] Memory required for data: 1881583680
I1226 10:39:27.842623 48847 layer_factory.hpp:77] Creating layer conv8_1_relu
I1226 10:39:27.842631 48847 net.cpp:100] Creating Layer conv8_1_relu
I1226 10:39:27.842636 48847 net.cpp:434] conv8_1_relu <- conv8_1
I1226 10:39:27.842641 48847 net.cpp:395] conv8_1_relu -> conv8_1 (in-place)
I1226 10:39:27.842648 48847 net.cpp:150] Setting up conv8_1_relu
I1226 10:39:27.842653 48847 net.cpp:157] Top shape: 8 128 5 5 (25600)
I1226 10:39:27.842655 48847 net.cpp:165] Memory required for data: 1881686080
I1226 10:39:27.842658 48847 layer_factory.hpp:77] Creating layer conv8_2
I1226 10:39:27.842669 48847 net.cpp:100] Creating Layer conv8_2
I1226 10:39:27.842674 48847 net.cpp:434] conv8_2 <- conv8_1
I1226 10:39:27.842681 48847 net.cpp:408] conv8_2 -> conv8_2
I1226 10:39:27.846834 48847 net.cpp:150] Setting up conv8_2
I1226 10:39:27.846850 48847 net.cpp:157] Top shape: 8 256 3 3 (18432)
I1226 10:39:27.846854 48847 net.cpp:165] Memory required for data: 1881759808
I1226 10:39:27.846861 48847 layer_factory.hpp:77] Creating layer conv8_2_relu
I1226 10:39:27.846868 48847 net.cpp:100] Creating Layer conv8_2_relu
I1226 10:39:27.846873 48847 net.cpp:434] conv8_2_relu <- conv8_2
I1226 10:39:27.846879 48847 net.cpp:395] conv8_2_relu -> conv8_2 (in-place)
I1226 10:39:27.846887 48847 net.cpp:150] Setting up conv8_2_relu
I1226 10:39:27.846891 48847 net.cpp:157] Top shape: 8 256 3 3 (18432)
I1226 10:39:27.846895 48847 net.cpp:165] Memory required for data: 1881833536
I1226 10:39:27.846899 48847 layer_factory.hpp:77] Creating layer conv8_2_conv8_2_relu_0_split
I1226 10:39:27.846904 48847 net.cpp:100] Creating Layer conv8_2_conv8_2_relu_0_split
I1226 10:39:27.846909 48847 net.cpp:434] conv8_2_conv8_2_relu_0_split <- conv8_2
I1226 10:39:27.846916 48847 net.cpp:408] conv8_2_conv8_2_relu_0_split -> conv8_2_conv8_2_relu_0_split_0
I1226 10:39:27.846925 48847 net.cpp:408] conv8_2_conv8_2_relu_0_split -> conv8_2_conv8_2_relu_0_split_1
I1226 10:39:27.846935 48847 net.cpp:408] conv8_2_conv8_2_relu_0_split -> conv8_2_conv8_2_relu_0_split_2
I1226 10:39:27.846943 48847 net.cpp:408] conv8_2_conv8_2_relu_0_split -> conv8_2_conv8_2_relu_0_split_3
I1226 10:39:27.847031 48847 net.cpp:150] Setting up conv8_2_conv8_2_relu_0_split
I1226 10:39:27.847039 48847 net.cpp:157] Top shape: 8 256 3 3 (18432)
I1226 10:39:27.847044 48847 net.cpp:157] Top shape: 8 256 3 3 (18432)
I1226 10:39:27.847055 48847 net.cpp:157] Top shape: 8 256 3 3 (18432)
I1226 10:39:27.847060 48847 net.cpp:157] Top shape: 8 256 3 3 (18432)
I1226 10:39:27.847064 48847 net.cpp:165] Memory required for data: 1882128448
I1226 10:39:27.847066 48847 layer_factory.hpp:77] Creating layer conv9_1
I1226 10:39:27.847079 48847 net.cpp:100] Creating Layer conv9_1
I1226 10:39:27.847084 48847 net.cpp:434] conv9_1 <- conv8_2_conv8_2_relu_0_split_0
I1226 10:39:27.847093 48847 net.cpp:408] conv9_1 -> conv9_1
I1226 10:39:27.847589 48847 net.cpp:150] Setting up conv9_1
I1226 10:39:27.847599 48847 net.cpp:157] Top shape: 8 128 3 3 (9216)
I1226 10:39:27.847602 48847 net.cpp:165] Memory required for data: 1882165312
I1226 10:39:27.847609 48847 layer_factory.hpp:77] Creating layer conv9_1_relu
I1226 10:39:27.847620 48847 net.cpp:100] Creating Layer conv9_1_relu
I1226 10:39:27.847622 48847 net.cpp:434] conv9_1_relu <- conv9_1
I1226 10:39:27.847630 48847 net.cpp:395] conv9_1_relu -> conv9_1 (in-place)
I1226 10:39:27.847635 48847 net.cpp:150] Setting up conv9_1_relu
I1226 10:39:27.847640 48847 net.cpp:157] Top shape: 8 128 3 3 (9216)
I1226 10:39:27.847642 48847 net.cpp:165] Memory required for data: 1882202176
I1226 10:39:27.847646 48847 layer_factory.hpp:77] Creating layer conv9_2
I1226 10:39:27.847656 48847 net.cpp:100] Creating Layer conv9_2
I1226 10:39:27.847659 48847 net.cpp:434] conv9_2 <- conv9_1
I1226 10:39:27.847666 48847 net.cpp:408] conv9_2 -> conv9_2
I1226 10:39:27.852084 48847 net.cpp:150] Setting up conv9_2
I1226 10:39:27.852104 48847 net.cpp:157] Top shape: 8 256 1 1 (2048)
I1226 10:39:27.852108 48847 net.cpp:165] Memory required for data: 1882210368
I1226 10:39:27.852116 48847 layer_factory.hpp:77] Creating layer conv9_2_relu
I1226 10:39:27.852124 48847 net.cpp:100] Creating Layer conv9_2_relu
I1226 10:39:27.852129 48847 net.cpp:434] conv9_2_relu <- conv9_2
I1226 10:39:27.852138 48847 net.cpp:395] conv9_2_relu -> conv9_2 (in-place)
I1226 10:39:27.852145 48847 net.cpp:150] Setting up conv9_2_relu
I1226 10:39:27.852152 48847 net.cpp:157] Top shape: 8 256 1 1 (2048)
I1226 10:39:27.852154 48847 net.cpp:165] Memory required for data: 1882218560
I1226 10:39:27.852159 48847 layer_factory.hpp:77] Creating layer conv9_2_conv9_2_relu_0_split
I1226 10:39:27.852164 48847 net.cpp:100] Creating Layer conv9_2_conv9_2_relu_0_split
I1226 10:39:27.852169 48847 net.cpp:434] conv9_2_conv9_2_relu_0_split <- conv9_2
I1226 10:39:27.852175 48847 net.cpp:408] conv9_2_conv9_2_relu_0_split -> conv9_2_conv9_2_relu_0_split_0
I1226 10:39:27.852183 48847 net.cpp:408] conv9_2_conv9_2_relu_0_split -> conv9_2_conv9_2_relu_0_split_1
I1226 10:39:27.852190 48847 net.cpp:408] conv9_2_conv9_2_relu_0_split -> conv9_2_conv9_2_relu_0_split_2
I1226 10:39:27.852249 48847 net.cpp:150] Setting up conv9_2_conv9_2_relu_0_split
I1226 10:39:27.852257 48847 net.cpp:157] Top shape: 8 256 1 1 (2048)
I1226 10:39:27.852262 48847 net.cpp:157] Top shape: 8 256 1 1 (2048)
I1226 10:39:27.852267 48847 net.cpp:157] Top shape: 8 256 1 1 (2048)
I1226 10:39:27.852270 48847 net.cpp:165] Memory required for data: 1882243136
I1226 10:39:27.852273 48847 layer_factory.hpp:77] Creating layer conv4_3_norm
I1226 10:39:27.852284 48847 net.cpp:100] Creating Layer conv4_3_norm
I1226 10:39:27.852290 48847 net.cpp:434] conv4_3_norm <- conv4_3_relu4_3_0_split_1
I1226 10:39:27.852299 48847 net.cpp:408] conv4_3_norm -> conv4_3_norm
I1226 10:39:27.852469 48847 net.cpp:150] Setting up conv4_3_norm
I1226 10:39:27.852478 48847 net.cpp:157] Top shape: 8 512 38 38 (5914624)
I1226 10:39:27.852481 48847 net.cpp:165] Memory required for data: 1905901632
I1226 10:39:27.852488 48847 layer_factory.hpp:77] Creating layer conv4_3_norm_conv4_3_norm_0_split
I1226 10:39:27.852496 48847 net.cpp:100] Creating Layer conv4_3_norm_conv4_3_norm_0_split
I1226 10:39:27.852499 48847 net.cpp:434] conv4_3_norm_conv4_3_norm_0_split <- conv4_3_norm
I1226 10:39:27.852521 48847 net.cpp:408] conv4_3_norm_conv4_3_norm_0_split -> conv4_3_norm_conv4_3_norm_0_split_0
I1226 10:39:27.852532 48847 net.cpp:408] conv4_3_norm_conv4_3_norm_0_split -> conv4_3_norm_conv4_3_norm_0_split_1
I1226 10:39:27.852538 48847 net.cpp:408] conv4_3_norm_conv4_3_norm_0_split -> conv4_3_norm_conv4_3_norm_0_split_2
I1226 10:39:27.852592 48847 net.cpp:150] Setting up conv4_3_norm_conv4_3_norm_0_split
I1226 10:39:27.852600 48847 net.cpp:157] Top shape: 8 512 38 38 (5914624)
I1226 10:39:27.852605 48847 net.cpp:157] Top shape: 8 512 38 38 (5914624)
I1226 10:39:27.852609 48847 net.cpp:157] Top shape: 8 512 38 38 (5914624)
I1226 10:39:27.852612 48847 net.cpp:165] Memory required for data: 1976877120
I1226 10:39:27.852617 48847 layer_factory.hpp:77] Creating layer conv4_3_norm_mbox_loc
I1226 10:39:27.852627 48847 net.cpp:100] Creating Layer conv4_3_norm_mbox_loc
I1226 10:39:27.852643 48847 net.cpp:434] conv4_3_norm_mbox_loc <- conv4_3_norm_conv4_3_norm_0_split_0
I1226 10:39:27.852653 48847 net.cpp:408] conv4_3_norm_mbox_loc -> conv4_3_norm_mbox_loc
I1226 10:39:27.853513 48847 net.cpp:150] Setting up conv4_3_norm_mbox_loc
I1226 10:39:27.853524 48847 net.cpp:157] Top shape: 8 16 38 38 (184832)
I1226 10:39:27.853528 48847 net.cpp:165] Memory required for data: 1977616448
I1226 10:39:27.853534 48847 layer_factory.hpp:77] Creating layer conv4_3_norm_mbox_loc_perm
I1226 10:39:27.853543 48847 net.cpp:100] Creating Layer conv4_3_norm_mbox_loc_perm
I1226 10:39:27.853550 48847 net.cpp:434] conv4_3_norm_mbox_loc_perm <- conv4_3_norm_mbox_loc
I1226 10:39:27.853559 48847 net.cpp:408] conv4_3_norm_mbox_loc_perm -> conv4_3_norm_mbox_loc_perm
I1226 10:39:27.853673 48847 net.cpp:150] Setting up conv4_3_norm_mbox_loc_perm
I1226 10:39:27.853682 48847 net.cpp:157] Top shape: 8 38 38 16 (184832)
I1226 10:39:27.853685 48847 net.cpp:165] Memory required for data: 1978355776
I1226 10:39:27.853689 48847 layer_factory.hpp:77] Creating layer conv4_3_norm_mbox_loc_flat
I1226 10:39:27.853699 48847 net.cpp:100] Creating Layer conv4_3_norm_mbox_loc_flat
I1226 10:39:27.853704 48847 net.cpp:434] conv4_3_norm_mbox_loc_flat <- conv4_3_norm_mbox_loc_perm
I1226 10:39:27.853710 48847 net.cpp:408] conv4_3_norm_mbox_loc_flat -> conv4_3_norm_mbox_loc_flat
I1226 10:39:27.853754 48847 net.cpp:150] Setting up conv4_3_norm_mbox_loc_flat
I1226 10:39:27.853762 48847 net.cpp:157] Top shape: 8 23104 (184832)
I1226 10:39:27.853765 48847 net.cpp:165] Memory required for data: 1979095104
I1226 10:39:27.853770 48847 layer_factory.hpp:77] Creating layer conv4_3_norm_mbox_conf
I1226 10:39:27.853793 48847 net.cpp:100] Creating Layer conv4_3_norm_mbox_conf
I1226 10:39:27.853798 48847 net.cpp:434] conv4_3_norm_mbox_conf <- conv4_3_norm_conv4_3_norm_0_split_1
I1226 10:39:27.853806 48847 net.cpp:408] conv4_3_norm_mbox_conf -> conv4_3_norm_mbox_conf
I1226 10:39:27.855607 48847 net.cpp:150] Setting up conv4_3_norm_mbox_conf
I1226 10:39:27.855621 48847 net.cpp:157] Top shape: 8 12 38 38 (138624)
I1226 10:39:27.855625 48847 net.cpp:165] Memory required for data: 1979649600
I1226 10:39:27.855633 48847 layer_factory.hpp:77] Creating layer conv4_3_norm_mbox_conf_perm
I1226 10:39:27.855641 48847 net.cpp:100] Creating Layer conv4_3_norm_mbox_conf_perm
I1226 10:39:27.855645 48847 net.cpp:434] conv4_3_norm_mbox_conf_perm <- conv4_3_norm_mbox_conf
I1226 10:39:27.855654 48847 net.cpp:408] conv4_3_norm_mbox_conf_perm -> conv4_3_norm_mbox_conf_perm
I1226 10:39:27.855758 48847 net.cpp:150] Setting up conv4_3_norm_mbox_conf_perm
I1226 10:39:27.855769 48847 net.cpp:157] Top shape: 8 38 38 12 (138624)
I1226 10:39:27.855772 48847 net.cpp:165] Memory required for data: 1980204096
I1226 10:39:27.855775 48847 layer_factory.hpp:77] Creating layer conv4_3_norm_mbox_conf_flat
I1226 10:39:27.855782 48847 net.cpp:100] Creating Layer conv4_3_norm_mbox_conf_flat
I1226 10:39:27.855785 48847 net.cpp:434] conv4_3_norm_mbox_conf_flat <- conv4_3_norm_mbox_conf_perm
I1226 10:39:27.855792 48847 net.cpp:408] conv4_3_norm_mbox_conf_flat -> conv4_3_norm_mbox_conf_flat
I1226 10:39:27.855814 48847 net.cpp:150] Setting up conv4_3_norm_mbox_conf_flat
I1226 10:39:27.855835 48847 net.cpp:157] Top shape: 8 17328 (138624)
I1226 10:39:27.855840 48847 net.cpp:165] Memory required for data: 1980758592
I1226 10:39:27.855844 48847 layer_factory.hpp:77] Creating layer conv4_3_norm_mbox_priorbox
I1226 10:39:27.855851 48847 net.cpp:100] Creating Layer conv4_3_norm_mbox_priorbox
I1226 10:39:27.855854 48847 net.cpp:434] conv4_3_norm_mbox_priorbox <- conv4_3_norm_conv4_3_norm_0_split_2
I1226 10:39:27.855861 48847 net.cpp:434] conv4_3_norm_mbox_priorbox <- data_data_0_split_1
I1226 10:39:27.855870 48847 net.cpp:408] conv4_3_norm_mbox_priorbox -> conv4_3_norm_mbox_priorbox
I1226 10:39:27.855903 48847 net.cpp:150] Setting up conv4_3_norm_mbox_priorbox
I1226 10:39:27.855911 48847 net.cpp:157] Top shape: 1 2 23104 (46208)
I1226 10:39:27.855914 48847 net.cpp:165] Memory required for data: 1980943424
I1226 10:39:27.855917 48847 layer_factory.hpp:77] Creating layer fc7_mbox_loc
I1226 10:39:27.855931 48847 net.cpp:100] Creating Layer fc7_mbox_loc
I1226 10:39:27.855936 48847 net.cpp:434] fc7_mbox_loc <- fc7_relu7_0_split_1
I1226 10:39:27.855943 48847 net.cpp:408] fc7_mbox_loc -> fc7_mbox_loc
I1226 10:39:27.858822 48847 net.cpp:150] Setting up fc7_mbox_loc
I1226 10:39:27.858836 48847 net.cpp:157] Top shape: 8 24 19 19 (69312)
I1226 10:39:27.858839 48847 net.cpp:165] Memory required for data: 1981220672
I1226 10:39:27.858847 48847 layer_factory.hpp:77] Creating layer fc7_mbox_loc_perm
I1226 10:39:27.858855 48847 net.cpp:100] Creating Layer fc7_mbox_loc_perm
I1226 10:39:27.858858 48847 net.cpp:434] fc7_mbox_loc_perm <- fc7_mbox_loc
I1226 10:39:27.858867 48847 net.cpp:408] fc7_mbox_loc_perm -> fc7_mbox_loc_perm
I1226 10:39:27.858975 48847 net.cpp:150] Setting up fc7_mbox_loc_perm
I1226 10:39:27.858983 48847 net.cpp:157] Top shape: 8 19 19 24 (69312)
I1226 10:39:27.858986 48847 net.cpp:165] Memory required for data: 1981497920
I1226 10:39:27.858989 48847 layer_factory.hpp:77] Creating layer fc7_mbox_loc_flat
I1226 10:39:27.858996 48847 net.cpp:100] Creating Layer fc7_mbox_loc_flat
I1226 10:39:27.858999 48847 net.cpp:434] fc7_mbox_loc_flat <- fc7_mbox_loc_perm
I1226 10:39:27.859010 48847 net.cpp:408] fc7_mbox_loc_flat -> fc7_mbox_loc_flat
I1226 10:39:27.859037 48847 net.cpp:150] Setting up fc7_mbox_loc_flat
I1226 10:39:27.859045 48847 net.cpp:157] Top shape: 8 8664 (69312)
I1226 10:39:27.859048 48847 net.cpp:165] Memory required for data: 1981775168
I1226 10:39:27.859051 48847 layer_factory.hpp:77] Creating layer fc7_mbox_conf
I1226 10:39:27.859062 48847 net.cpp:100] Creating Layer fc7_mbox_conf
I1226 10:39:27.859068 48847 net.cpp:434] fc7_mbox_conf <- fc7_relu7_0_split_2
I1226 10:39:27.859076 48847 net.cpp:408] fc7_mbox_conf -> fc7_mbox_conf
I1226 10:39:27.861682 48847 net.cpp:150] Setting up fc7_mbox_conf
I1226 10:39:27.861697 48847 net.cpp:157] Top shape: 8 18 19 19 (51984)
I1226 10:39:27.861701 48847 net.cpp:165] Memory required for data: 1981983104
I1226 10:39:27.861708 48847 layer_factory.hpp:77] Creating layer fc7_mbox_conf_perm
I1226 10:39:27.861718 48847 net.cpp:100] Creating Layer fc7_mbox_conf_perm
I1226 10:39:27.861724 48847 net.cpp:434] fc7_mbox_conf_perm <- fc7_mbox_conf
I1226 10:39:27.861732 48847 net.cpp:408] fc7_mbox_conf_perm -> fc7_mbox_conf_perm
I1226 10:39:27.861840 48847 net.cpp:150] Setting up fc7_mbox_conf_perm
I1226 10:39:27.861848 48847 net.cpp:157] Top shape: 8 19 19 18 (51984)
I1226 10:39:27.861851 48847 net.cpp:165] Memory required for data: 1982191040
I1226 10:39:27.861856 48847 layer_factory.hpp:77] Creating layer fc7_mbox_conf_flat
I1226 10:39:27.861862 48847 net.cpp:100] Creating Layer fc7_mbox_conf_flat
I1226 10:39:27.861865 48847 net.cpp:434] fc7_mbox_conf_flat <- fc7_mbox_conf_perm
I1226 10:39:27.861873 48847 net.cpp:408] fc7_mbox_conf_flat -> fc7_mbox_conf_flat
I1226 10:39:27.861899 48847 net.cpp:150] Setting up fc7_mbox_conf_flat
I1226 10:39:27.861905 48847 net.cpp:157] Top shape: 8 6498 (51984)
I1226 10:39:27.861908 48847 net.cpp:165] Memory required for data: 1982398976
I1226 10:39:27.861912 48847 layer_factory.hpp:77] Creating layer fc7_mbox_priorbox
I1226 10:39:27.861933 48847 net.cpp:100] Creating Layer fc7_mbox_priorbox
I1226 10:39:27.861937 48847 net.cpp:434] fc7_mbox_priorbox <- fc7_relu7_0_split_3
I1226 10:39:27.861943 48847 net.cpp:434] fc7_mbox_priorbox <- data_data_0_split_2
I1226 10:39:27.861951 48847 net.cpp:408] fc7_mbox_priorbox -> fc7_mbox_priorbox
I1226 10:39:27.861984 48847 net.cpp:150] Setting up fc7_mbox_priorbox
I1226 10:39:27.861991 48847 net.cpp:157] Top shape: 1 2 8664 (17328)
I1226 10:39:27.861994 48847 net.cpp:165] Memory required for data: 1982468288
I1226 10:39:27.861997 48847 layer_factory.hpp:77] Creating layer conv6_2_mbox_loc
I1226 10:39:27.862010 48847 net.cpp:100] Creating Layer conv6_2_mbox_loc
I1226 10:39:27.862015 48847 net.cpp:434] conv6_2_mbox_loc <- conv6_2_conv6_2_relu_0_split_1
I1226 10:39:27.862025 48847 net.cpp:408] conv6_2_mbox_loc -> conv6_2_mbox_loc
I1226 10:39:27.864178 48847 net.cpp:150] Setting up conv6_2_mbox_loc
I1226 10:39:27.864192 48847 net.cpp:157] Top shape: 8 24 10 10 (19200)
I1226 10:39:27.864195 48847 net.cpp:165] Memory required for data: 1982545088
I1226 10:39:27.864202 48847 layer_factory.hpp:77] Creating layer conv6_2_mbox_loc_perm
I1226 10:39:27.864209 48847 net.cpp:100] Creating Layer conv6_2_mbox_loc_perm
I1226 10:39:27.864214 48847 net.cpp:434] conv6_2_mbox_loc_perm <- conv6_2_mbox_loc
I1226 10:39:27.864223 48847 net.cpp:408] conv6_2_mbox_loc_perm -> conv6_2_mbox_loc_perm
I1226 10:39:27.864329 48847 net.cpp:150] Setting up conv6_2_mbox_loc_perm
I1226 10:39:27.864339 48847 net.cpp:157] Top shape: 8 10 10 24 (19200)
I1226 10:39:27.864343 48847 net.cpp:165] Memory required for data: 1982621888
I1226 10:39:27.864346 48847 layer_factory.hpp:77] Creating layer conv6_2_mbox_loc_flat
I1226 10:39:27.864352 48847 net.cpp:100] Creating Layer conv6_2_mbox_loc_flat
I1226 10:39:27.864356 48847 net.cpp:434] conv6_2_mbox_loc_flat <- conv6_2_mbox_loc_perm
I1226 10:39:27.864363 48847 net.cpp:408] conv6_2_mbox_loc_flat -> conv6_2_mbox_loc_flat
I1226 10:39:27.864387 48847 net.cpp:150] Setting up conv6_2_mbox_loc_flat
I1226 10:39:27.864392 48847 net.cpp:157] Top shape: 8 2400 (19200)
I1226 10:39:27.864395 48847 net.cpp:165] Memory required for data: 1982698688
I1226 10:39:27.864399 48847 layer_factory.hpp:77] Creating layer conv6_2_mbox_conf
I1226 10:39:27.864414 48847 net.cpp:100] Creating Layer conv6_2_mbox_conf
I1226 10:39:27.864419 48847 net.cpp:434] conv6_2_mbox_conf <- conv6_2_conv6_2_relu_0_split_2
I1226 10:39:27.864425 48847 net.cpp:408] conv6_2_mbox_conf -> conv6_2_mbox_conf
I1226 10:39:27.865226 48847 net.cpp:150] Setting up conv6_2_mbox_conf
I1226 10:39:27.865234 48847 net.cpp:157] Top shape: 8 18 10 10 (14400)
I1226 10:39:27.865237 48847 net.cpp:165] Memory required for data: 1982756288
I1226 10:39:27.865244 48847 layer_factory.hpp:77] Creating layer conv6_2_mbox_conf_perm
I1226 10:39:27.865252 48847 net.cpp:100] Creating Layer conv6_2_mbox_conf_perm
I1226 10:39:27.865257 48847 net.cpp:434] conv6_2_mbox_conf_perm <- conv6_2_mbox_conf
I1226 10:39:27.865262 48847 net.cpp:408] conv6_2_mbox_conf_perm -> conv6_2_mbox_conf_perm
I1226 10:39:27.865370 48847 net.cpp:150] Setting up conv6_2_mbox_conf_perm
I1226 10:39:27.865377 48847 net.cpp:157] Top shape: 8 10 10 18 (14400)
I1226 10:39:27.865381 48847 net.cpp:165] Memory required for data: 1982813888
I1226 10:39:27.865384 48847 layer_factory.hpp:77] Creating layer conv6_2_mbox_conf_flat
I1226 10:39:27.865389 48847 net.cpp:100] Creating Layer conv6_2_mbox_conf_flat
I1226 10:39:27.865393 48847 net.cpp:434] conv6_2_mbox_conf_flat <- conv6_2_mbox_conf_perm
I1226 10:39:27.865401 48847 net.cpp:408] conv6_2_mbox_conf_flat -> conv6_2_mbox_conf_flat
I1226 10:39:27.865437 48847 net.cpp:150] Setting up conv6_2_mbox_conf_flat
I1226 10:39:27.865443 48847 net.cpp:157] Top shape: 8 1800 (14400)
I1226 10:39:27.865447 48847 net.cpp:165] Memory required for data: 1982871488
I1226 10:39:27.865450 48847 layer_factory.hpp:77] Creating layer conv6_2_mbox_priorbox
I1226 10:39:27.865458 48847 net.cpp:100] Creating Layer conv6_2_mbox_priorbox
I1226 10:39:27.865474 48847 net.cpp:434] conv6_2_mbox_priorbox <- conv6_2_conv6_2_relu_0_split_3
I1226 10:39:27.865480 48847 net.cpp:434] conv6_2_mbox_priorbox <- data_data_0_split_3
I1226 10:39:27.865489 48847 net.cpp:408] conv6_2_mbox_priorbox -> conv6_2_mbox_priorbox
I1226 10:39:27.865519 48847 net.cpp:150] Setting up conv6_2_mbox_priorbox
I1226 10:39:27.865525 48847 net.cpp:157] Top shape: 1 2 2400 (4800)
I1226 10:39:27.865530 48847 net.cpp:165] Memory required for data: 1982890688
I1226 10:39:27.865532 48847 layer_factory.hpp:77] Creating layer conv7_2_mbox_loc
I1226 10:39:27.865545 48847 net.cpp:100] Creating Layer conv7_2_mbox_loc
I1226 10:39:27.865550 48847 net.cpp:434] conv7_2_mbox_loc <- conv7_2_conv7_2_relu_0_split_1
I1226 10:39:27.865559 48847 net.cpp:408] conv7_2_mbox_loc -> conv7_2_mbox_loc
I1226 10:39:27.866174 48847 net.cpp:150] Setting up conv7_2_mbox_loc
I1226 10:39:27.866183 48847 net.cpp:157] Top shape: 8 24 5 5 (4800)
I1226 10:39:27.866185 48847 net.cpp:165] Memory required for data: 1982909888
I1226 10:39:27.866192 48847 layer_factory.hpp:77] Creating layer conv7_2_mbox_loc_perm
I1226 10:39:27.866200 48847 net.cpp:100] Creating Layer conv7_2_mbox_loc_perm
I1226 10:39:27.866204 48847 net.cpp:434] conv7_2_mbox_loc_perm <- conv7_2_mbox_loc
I1226 10:39:27.866209 48847 net.cpp:408] conv7_2_mbox_loc_perm -> conv7_2_mbox_loc_perm
I1226 10:39:27.866309 48847 net.cpp:150] Setting up conv7_2_mbox_loc_perm
I1226 10:39:27.866317 48847 net.cpp:157] Top shape: 8 5 5 24 (4800)
I1226 10:39:27.866319 48847 net.cpp:165] Memory required for data: 1982929088
I1226 10:39:27.866322 48847 layer_factory.hpp:77] Creating layer conv7_2_mbox_loc_flat
I1226 10:39:27.866330 48847 net.cpp:100] Creating Layer conv7_2_mbox_loc_flat
I1226 10:39:27.866333 48847 net.cpp:434] conv7_2_mbox_loc_flat <- conv7_2_mbox_loc_perm
I1226 10:39:27.866338 48847 net.cpp:408] conv7_2_mbox_loc_flat -> conv7_2_mbox_loc_flat
I1226 10:39:27.866363 48847 net.cpp:150] Setting up conv7_2_mbox_loc_flat
I1226 10:39:27.866369 48847 net.cpp:157] Top shape: 8 600 (4800)
I1226 10:39:27.866371 48847 net.cpp:165] Memory required for data: 1982948288
I1226 10:39:27.866374 48847 layer_factory.hpp:77] Creating layer conv7_2_mbox_conf
I1226 10:39:27.866384 48847 net.cpp:100] Creating Layer conv7_2_mbox_conf
I1226 10:39:27.866389 48847 net.cpp:434] conv7_2_mbox_conf <- conv7_2_conv7_2_relu_0_split_2
I1226 10:39:27.866396 48847 net.cpp:408] conv7_2_mbox_conf -> conv7_2_mbox_conf
I1226 10:39:27.866895 48847 net.cpp:150] Setting up conv7_2_mbox_conf
I1226 10:39:27.866904 48847 net.cpp:157] Top shape: 8 18 5 5 (3600)
I1226 10:39:27.866907 48847 net.cpp:165] Memory required for data: 1982962688
I1226 10:39:27.866914 48847 layer_factory.hpp:77] Creating layer conv7_2_mbox_conf_perm
I1226 10:39:27.866919 48847 net.cpp:100] Creating Layer conv7_2_mbox_conf_perm
I1226 10:39:27.866922 48847 net.cpp:434] conv7_2_mbox_conf_perm <- conv7_2_mbox_conf
I1226 10:39:27.866931 48847 net.cpp:408] conv7_2_mbox_conf_perm -> conv7_2_mbox_conf_perm
I1226 10:39:27.867030 48847 net.cpp:150] Setting up conv7_2_mbox_conf_perm
I1226 10:39:27.867038 48847 net.cpp:157] Top shape: 8 5 5 18 (3600)
I1226 10:39:27.867040 48847 net.cpp:165] Memory required for data: 1982977088
I1226 10:39:27.867044 48847 layer_factory.hpp:77] Creating layer conv7_2_mbox_conf_flat
I1226 10:39:27.867053 48847 net.cpp:100] Creating Layer conv7_2_mbox_conf_flat
I1226 10:39:27.867056 48847 net.cpp:434] conv7_2_mbox_conf_flat <- conv7_2_mbox_conf_perm
I1226 10:39:27.867063 48847 net.cpp:408] conv7_2_mbox_conf_flat -> conv7_2_mbox_conf_flat
I1226 10:39:27.867084 48847 net.cpp:150] Setting up conv7_2_mbox_conf_flat
I1226 10:39:27.867090 48847 net.cpp:157] Top shape: 8 450 (3600)
I1226 10:39:27.867094 48847 net.cpp:165] Memory required for data: 1982991488
I1226 10:39:27.867096 48847 layer_factory.hpp:77] Creating layer conv7_2_mbox_priorbox
I1226 10:39:27.867105 48847 net.cpp:100] Creating Layer conv7_2_mbox_priorbox
I1226 10:39:27.867110 48847 net.cpp:434] conv7_2_mbox_priorbox <- conv7_2_conv7_2_relu_0_split_3
I1226 10:39:27.867123 48847 net.cpp:434] conv7_2_mbox_priorbox <- data_data_0_split_4
I1226 10:39:27.867131 48847 net.cpp:408] conv7_2_mbox_priorbox -> conv7_2_mbox_priorbox
I1226 10:39:27.867157 48847 net.cpp:150] Setting up conv7_2_mbox_priorbox
I1226 10:39:27.867164 48847 net.cpp:157] Top shape: 1 2 600 (1200)
I1226 10:39:27.867166 48847 net.cpp:165] Memory required for data: 1982996288
I1226 10:39:27.867169 48847 layer_factory.hpp:77] Creating layer conv8_2_mbox_loc
I1226 10:39:27.867183 48847 net.cpp:100] Creating Layer conv8_2_mbox_loc
I1226 10:39:27.867188 48847 net.cpp:434] conv8_2_mbox_loc <- conv8_2_conv8_2_relu_0_split_1
I1226 10:39:27.867195 48847 net.cpp:408] conv8_2_mbox_loc -> conv8_2_mbox_loc
I1226 10:39:27.867671 48847 net.cpp:150] Setting up conv8_2_mbox_loc
I1226 10:39:27.867681 48847 net.cpp:157] Top shape: 8 16 3 3 (1152)
I1226 10:39:27.867684 48847 net.cpp:165] Memory required for data: 1983000896
I1226 10:39:27.867702 48847 layer_factory.hpp:77] Creating layer conv8_2_mbox_loc_perm
I1226 10:39:27.867710 48847 net.cpp:100] Creating Layer conv8_2_mbox_loc_perm
I1226 10:39:27.867714 48847 net.cpp:434] conv8_2_mbox_loc_perm <- conv8_2_mbox_loc
I1226 10:39:27.867727 48847 net.cpp:408] conv8_2_mbox_loc_perm -> conv8_2_mbox_loc_perm
I1226 10:39:27.867831 48847 net.cpp:150] Setting up conv8_2_mbox_loc_perm
I1226 10:39:27.867838 48847 net.cpp:157] Top shape: 8 3 3 16 (1152)
I1226 10:39:27.867842 48847 net.cpp:165] Memory required for data: 1983005504
I1226 10:39:27.867846 48847 layer_factory.hpp:77] Creating layer conv8_2_mbox_loc_flat
I1226 10:39:27.867853 48847 net.cpp:100] Creating Layer conv8_2_mbox_loc_flat
I1226 10:39:27.867856 48847 net.cpp:434] conv8_2_mbox_loc_flat <- conv8_2_mbox_loc_perm
I1226 10:39:27.867862 48847 net.cpp:408] conv8_2_mbox_loc_flat -> conv8_2_mbox_loc_flat
I1226 10:39:27.867887 48847 net.cpp:150] Setting up conv8_2_mbox_loc_flat
I1226 10:39:27.867892 48847 net.cpp:157] Top shape: 8 144 (1152)
I1226 10:39:27.867895 48847 net.cpp:165] Memory required for data: 1983010112
I1226 10:39:27.867898 48847 layer_factory.hpp:77] Creating layer conv8_2_mbox_conf
I1226 10:39:27.867910 48847 net.cpp:100] Creating Layer conv8_2_mbox_conf
I1226 10:39:27.867915 48847 net.cpp:434] conv8_2_mbox_conf <- conv8_2_conv8_2_relu_0_split_2
I1226 10:39:27.867923 48847 net.cpp:408] conv8_2_mbox_conf -> conv8_2_mbox_conf
I1226 10:39:27.868341 48847 net.cpp:150] Setting up conv8_2_mbox_conf
I1226 10:39:27.868350 48847 net.cpp:157] Top shape: 8 12 3 3 (864)
I1226 10:39:27.868353 48847 net.cpp:165] Memory required for data: 1983013568
I1226 10:39:27.868360 48847 layer_factory.hpp:77] Creating layer conv8_2_mbox_conf_perm
I1226 10:39:27.868366 48847 net.cpp:100] Creating Layer conv8_2_mbox_conf_perm
I1226 10:39:27.868372 48847 net.cpp:434] conv8_2_mbox_conf_perm <- conv8_2_mbox_conf
I1226 10:39:27.868379 48847 net.cpp:408] conv8_2_mbox_conf_perm -> conv8_2_mbox_conf_perm
I1226 10:39:27.868479 48847 net.cpp:150] Setting up conv8_2_mbox_conf_perm
I1226 10:39:27.868489 48847 net.cpp:157] Top shape: 8 3 3 12 (864)
I1226 10:39:27.868490 48847 net.cpp:165] Memory required for data: 1983017024
I1226 10:39:27.868494 48847 layer_factory.hpp:77] Creating layer conv8_2_mbox_conf_flat
I1226 10:39:27.868499 48847 net.cpp:100] Creating Layer conv8_2_mbox_conf_flat
I1226 10:39:27.868504 48847 net.cpp:434] conv8_2_mbox_conf_flat <- conv8_2_mbox_conf_perm
I1226 10:39:27.868510 48847 net.cpp:408] conv8_2_mbox_conf_flat -> conv8_2_mbox_conf_flat
I1226 10:39:27.868531 48847 net.cpp:150] Setting up conv8_2_mbox_conf_flat
I1226 10:39:27.868547 48847 net.cpp:157] Top shape: 8 108 (864)
I1226 10:39:27.868551 48847 net.cpp:165] Memory required for data: 1983020480
I1226 10:39:27.868554 48847 layer_factory.hpp:77] Creating layer conv8_2_mbox_priorbox
I1226 10:39:27.868561 48847 net.cpp:100] Creating Layer conv8_2_mbox_priorbox
I1226 10:39:27.868564 48847 net.cpp:434] conv8_2_mbox_priorbox <- conv8_2_conv8_2_relu_0_split_3
I1226 10:39:27.868569 48847 net.cpp:434] conv8_2_mbox_priorbox <- data_data_0_split_5
I1226 10:39:27.868577 48847 net.cpp:408] conv8_2_mbox_priorbox -> conv8_2_mbox_priorbox
I1226 10:39:27.868613 48847 net.cpp:150] Setting up conv8_2_mbox_priorbox
I1226 10:39:27.868623 48847 net.cpp:157] Top shape: 1 2 144 (288)
I1226 10:39:27.868625 48847 net.cpp:165] Memory required for data: 1983021632
I1226 10:39:27.868628 48847 layer_factory.hpp:77] Creating layer conv9_2_mbox_loc
I1226 10:39:27.868639 48847 net.cpp:100] Creating Layer conv9_2_mbox_loc
I1226 10:39:27.868644 48847 net.cpp:434] conv9_2_mbox_loc <- conv9_2_conv9_2_relu_0_split_0
I1226 10:39:27.868651 48847 net.cpp:408] conv9_2_mbox_loc -> conv9_2_mbox_loc
I1226 10:39:27.869120 48847 net.cpp:150] Setting up conv9_2_mbox_loc
I1226 10:39:27.869129 48847 net.cpp:157] Top shape: 8 16 1 1 (128)
I1226 10:39:27.869132 48847 net.cpp:165] Memory required for data: 1983022144
I1226 10:39:27.869138 48847 layer_factory.hpp:77] Creating layer conv9_2_mbox_loc_perm
I1226 10:39:27.869148 48847 net.cpp:100] Creating Layer conv9_2_mbox_loc_perm
I1226 10:39:27.869153 48847 net.cpp:434] conv9_2_mbox_loc_perm <- conv9_2_mbox_loc
I1226 10:39:27.869158 48847 net.cpp:408] conv9_2_mbox_loc_perm -> conv9_2_mbox_loc_perm
I1226 10:39:27.869262 48847 net.cpp:150] Setting up conv9_2_mbox_loc_perm
I1226 10:39:27.869269 48847 net.cpp:157] Top shape: 8 1 1 16 (128)
I1226 10:39:27.869272 48847 net.cpp:165] Memory required for data: 1983022656
I1226 10:39:27.869276 48847 layer_factory.hpp:77] Creating layer conv9_2_mbox_loc_flat
I1226 10:39:27.869282 48847 net.cpp:100] Creating Layer conv9_2_mbox_loc_flat
I1226 10:39:27.869285 48847 net.cpp:434] conv9_2_mbox_loc_flat <- conv9_2_mbox_loc_perm
I1226 10:39:27.869292 48847 net.cpp:408] conv9_2_mbox_loc_flat -> conv9_2_mbox_loc_flat
I1226 10:39:27.869314 48847 net.cpp:150] Setting up conv9_2_mbox_loc_flat
I1226 10:39:27.869320 48847 net.cpp:157] Top shape: 8 16 (128)
I1226 10:39:27.869323 48847 net.cpp:165] Memory required for data: 1983023168
I1226 10:39:27.869326 48847 layer_factory.hpp:77] Creating layer conv9_2_mbox_conf
I1226 10:39:27.869335 48847 net.cpp:100] Creating Layer conv9_2_mbox_conf
I1226 10:39:27.869340 48847 net.cpp:434] conv9_2_mbox_conf <- conv9_2_conv9_2_relu_0_split_1
I1226 10:39:27.869351 48847 net.cpp:408] conv9_2_mbox_conf -> conv9_2_mbox_conf
I1226 10:39:27.869801 48847 net.cpp:150] Setting up conv9_2_mbox_conf
I1226 10:39:27.869808 48847 net.cpp:157] Top shape: 8 12 1 1 (96)
I1226 10:39:27.869812 48847 net.cpp:165] Memory required for data: 1983023552
I1226 10:39:27.869818 48847 layer_factory.hpp:77] Creating layer conv9_2_mbox_conf_perm
I1226 10:39:27.869823 48847 net.cpp:100] Creating Layer conv9_2_mbox_conf_perm
I1226 10:39:27.869827 48847 net.cpp:434] conv9_2_mbox_conf_perm <- conv9_2_mbox_conf
I1226 10:39:27.869833 48847 net.cpp:408] conv9_2_mbox_conf_perm -> conv9_2_mbox_conf_perm
I1226 10:39:27.869932 48847 net.cpp:150] Setting up conv9_2_mbox_conf_perm
I1226 10:39:27.869940 48847 net.cpp:157] Top shape: 8 1 1 12 (96)
I1226 10:39:27.869942 48847 net.cpp:165] Memory required for data: 1983023936
I1226 10:39:27.869946 48847 layer_factory.hpp:77] Creating layer conv9_2_mbox_conf_flat
I1226 10:39:27.869952 48847 net.cpp:100] Creating Layer conv9_2_mbox_conf_flat
I1226 10:39:27.869956 48847 net.cpp:434] conv9_2_mbox_conf_flat <- conv9_2_mbox_conf_perm
I1226 10:39:27.869962 48847 net.cpp:408] conv9_2_mbox_conf_flat -> conv9_2_mbox_conf_flat
I1226 10:39:27.869985 48847 net.cpp:150] Setting up conv9_2_mbox_conf_flat
I1226 10:39:27.869992 48847 net.cpp:157] Top shape: 8 12 (96)
I1226 10:39:27.869994 48847 net.cpp:165] Memory required for data: 1983024320
I1226 10:39:27.869997 48847 layer_factory.hpp:77] Creating layer conv9_2_mbox_priorbox
I1226 10:39:27.870007 48847 net.cpp:100] Creating Layer conv9_2_mbox_priorbox
I1226 10:39:27.870010 48847 net.cpp:434] conv9_2_mbox_priorbox <- conv9_2_conv9_2_relu_0_split_2
I1226 10:39:27.870014 48847 net.cpp:434] conv9_2_mbox_priorbox <- data_data_0_split_6
I1226 10:39:27.870020 48847 net.cpp:408] conv9_2_mbox_priorbox -> conv9_2_mbox_priorbox
I1226 10:39:27.870046 48847 net.cpp:150] Setting up conv9_2_mbox_priorbox
I1226 10:39:27.870062 48847 net.cpp:157] Top shape: 1 2 16 (32)
I1226 10:39:27.870065 48847 net.cpp:165] Memory required for data: 1983024448
I1226 10:39:27.870069 48847 layer_factory.hpp:77] Creating layer mbox_loc
I1226 10:39:27.870079 48847 net.cpp:100] Creating Layer mbox_loc
I1226 10:39:27.870085 48847 net.cpp:434] mbox_loc <- conv4_3_norm_mbox_loc_flat
I1226 10:39:27.870090 48847 net.cpp:434] mbox_loc <- fc7_mbox_loc_flat
I1226 10:39:27.870093 48847 net.cpp:434] mbox_loc <- conv6_2_mbox_loc_flat
I1226 10:39:27.870098 48847 net.cpp:434] mbox_loc <- conv7_2_mbox_loc_flat
I1226 10:39:27.870102 48847 net.cpp:434] mbox_loc <- conv8_2_mbox_loc_flat
I1226 10:39:27.870106 48847 net.cpp:434] mbox_loc <- conv9_2_mbox_loc_flat
I1226 10:39:27.870111 48847 net.cpp:408] mbox_loc -> mbox_loc
I1226 10:39:27.870143 48847 net.cpp:150] Setting up mbox_loc
I1226 10:39:27.870151 48847 net.cpp:157] Top shape: 8 34928 (279424)
I1226 10:39:27.870153 48847 net.cpp:165] Memory required for data: 1984142144
I1226 10:39:27.870156 48847 layer_factory.hpp:77] Creating layer mbox_conf
I1226 10:39:27.870163 48847 net.cpp:100] Creating Layer mbox_conf
I1226 10:39:27.870167 48847 net.cpp:434] mbox_conf <- conv4_3_norm_mbox_conf_flat
I1226 10:39:27.870172 48847 net.cpp:434] mbox_conf <- fc7_mbox_conf_flat
I1226 10:39:27.870175 48847 net.cpp:434] mbox_conf <- conv6_2_mbox_conf_flat
I1226 10:39:27.870180 48847 net.cpp:434] mbox_conf <- conv7_2_mbox_conf_flat
I1226 10:39:27.870183 48847 net.cpp:434] mbox_conf <- conv8_2_mbox_conf_flat
I1226 10:39:27.870187 48847 net.cpp:434] mbox_conf <- conv9_2_mbox_conf_flat
I1226 10:39:27.870195 48847 net.cpp:408] mbox_conf -> mbox_conf
I1226 10:39:27.870218 48847 net.cpp:150] Setting up mbox_conf
I1226 10:39:27.870224 48847 net.cpp:157] Top shape: 8 26196 (209568)
I1226 10:39:27.870227 48847 net.cpp:165] Memory required for data: 1984980416
I1226 10:39:27.870230 48847 layer_factory.hpp:77] Creating layer mbox_priorbox
I1226 10:39:27.870237 48847 net.cpp:100] Creating Layer mbox_priorbox
I1226 10:39:27.870241 48847 net.cpp:434] mbox_priorbox <- conv4_3_norm_mbox_priorbox
I1226 10:39:27.870245 48847 net.cpp:434] mbox_priorbox <- fc7_mbox_priorbox
I1226 10:39:27.870250 48847 net.cpp:434] mbox_priorbox <- conv6_2_mbox_priorbox
I1226 10:39:27.870255 48847 net.cpp:434] mbox_priorbox <- conv7_2_mbox_priorbox
I1226 10:39:27.870259 48847 net.cpp:434] mbox_priorbox <- conv8_2_mbox_priorbox
I1226 10:39:27.870262 48847 net.cpp:434] mbox_priorbox <- conv9_2_mbox_priorbox
I1226 10:39:27.870268 48847 net.cpp:408] mbox_priorbox -> mbox_priorbox
I1226 10:39:27.870292 48847 net.cpp:150] Setting up mbox_priorbox
I1226 10:39:27.870301 48847 net.cpp:157] Top shape: 1 2 34928 (69856)
I1226 10:39:27.870304 48847 net.cpp:165] Memory required for data: 1985259840
I1226 10:39:27.870307 48847 layer_factory.hpp:77] Creating layer mbox_loss
I1226 10:39:27.870318 48847 net.cpp:100] Creating Layer mbox_loss
I1226 10:39:27.870323 48847 net.cpp:434] mbox_loss <- mbox_loc
I1226 10:39:27.870327 48847 net.cpp:434] mbox_loss <- mbox_conf
I1226 10:39:27.870332 48847 net.cpp:434] mbox_loss <- mbox_priorbox
…
state {
  phase: TEST
}
layer {
  name: "data"
  type: "AnnotatedData"
  top: "data"
  top: "label"
  include {
    phase: TEST
  }
  transform_param {
    mean_value: 104
    mean_value: 117
    mean_value: 123
    resize_param {
      prob: 1
      resize_mode: WARP
      height: 300
      width: 300
      interp_mode: LINEAR
    }
  }
  data_param {
    source: "examples/VOC0712/VOC0712_test_lmdb"
    batch_size: 8
    backend: LMDB
  }
  annotated_data_param {
    batch_sampler {
    }
    label_map_file: "data/VOC0712/labelmap_voc.prototxt"
  }
}
layer {
  name: "conv1_1"
  type: "Convolution"
  bottom: "data"
  top: "conv1_1"
  param {
    lr_mult: 1
    decay_mult: 1
  }
  param {
    lr_mult: 2
    decay_mult: 0
  }
  convolution_param {
    num_output: 64
    pad: 1
    kernel_size: 3
    weight_filler {
      type: "xavier"
    }
    bias_filler {
      type: "constant"
      value: 0
    }
  }
}
layer {
  name: "relu1_1"
  type: "ReLU"
  bottom: "conv1_1"
  top: "conv1_1"
}
layer {
  name: "conv1_2"
  type: "Convolution"
  bottom: "conv1_1"
  top: "conv1_2"
  param {
    lr_mult: 1
    decay_mult: 1
  }
  param {
    lr_mult: 2
    decay_mult: 0
  }
  convolution_param {
    num_output: 64
    pad: 1
    kernel_size: 3
    weight_filler {
      type: "xavier"
    }
    bias_filler {
      type: "constant"
      value: 0
    }
  }
}
layer {
  name: "relu1_2"
  type: "ReLU"
  bottom: "conv1_2"
  top: "conv1_2"
}
layer {
  name: "pool1"
  type: "Pooling"
  bottom: "conv1_2"
  top: "pool1"
  pooling_param {
    pool: MAX
    kernel_size: 2
    stride: 2
  }
}
layer {
  name: "conv2_1"
  type: "Convolution"
  bottom: "pool1"
  top: "conv2_1"
  param {
    lr_mult: 1
    decay_mult: 1
  }
  param {
    lr_mult: 2
    decay_mult: 0
  }
  convolution_param {
    num_output: 128
    pad: 1
    kernel_size: 3
    weight_filler {
      type: "xavier"
    }
    bias_filler {
      type: "constant"
      value: 0
    }
  }
}
layer {
  name: "relu2_1"
  type: "ReLU"
  bottom: "conv2_1"
  top: "conv2_1"
}
layer {
  name: "conv2_2"
  type: "Convolution"
  bottom: "conv2_1"
  top: "conv2_2"
  param {
    lr_mult: 1
    decay_mult: 1
  }
  param {
    lr_mult: 2
    decay_mult: 0
  }
  convolution_param {
    num_output: 128
    pad: 1
    kernel_size: 3
    weight_filler {
      type: "xavier"
    }
    bias_filler {
      type: "constant"
      value: 0
    }
  }
}
layer {
  name: "relu2_2"
  type: "ReLU"
  bottom: "conv2_2"
  top: "conv2_2"
}
layer {
  name: "pool2"
  type: "Pooling"
  bottom: "conv2_2"
  top: "pool2"
  pooling_param {
    pool: MAX
    kernel_size: 2
    stride: 2
  }
}
layer {
  name: "conv3_1"
  type: "Convolution"
  bottom: "pool2"
  top: "conv3_1"
  param {
    lr_mult: 1
    decay_mult: 1
  }
  param {
    lr_mult: 2
    decay_mult: 0
  }
  convolution_param {
    num_output: 256
    pad: 1
    kernel_size: 3
    weight_filler {
      type: "xavier"
    }
    bias_filler {
      type: "constant"
      value: 0
    }
  }
}
layer {
  name: "relu3_1"
  type: "ReLU"
  bottom: "conv3_1"
  top: "conv3_1"
}
layer {
  name: "conv3_2"
  type: "Convolution"
  bottom: "conv3_1"
  top: "conv3_2"
  param {
    lr_mult: 1
    decay_mult: 1
  }
  param {
    lr_mult: 2
    decay_mult: 0
  }
  convolution_param {
    num_output: 256
    pad: 1
    kernel_size: 3
    weight_filler {
      type: "xavier"
    }
    bias_filler {
      type: "constant"
      value: 0
    }
  }
}
layer {
  name: "relu3_2"
  type: "ReLU"
  bottom: "conv3_2"
  top: "conv3_2"
}
layer {
  name: "conv3_3"
  type: "Convolution"
  bottom: "conv3_2"
  top: "conv3_3"
  param {
    lr_mult: 1
    decay_mult: 1
  }
  param {
    lr_mult: 2
    decay_mult: 0
  }
  convolution_param {
    num_output: 256
    pad: 1
    kernel_size: 3
    weight_filler {
      type: "xavier"
    }
    bias_filler {
      type: "constant"
      value: 0
    }
  }
}
layer {
  name: "relu3_3"
  type: "ReLU"
  bottom: "conv3_3"
  top: "conv3_3"
}
layer {
  name: "pool3"
  type: "Pooling"
  bottom: "conv3_3"
  top: "pool3"
  pooling_param {
    pool: MAX
    kernel_size: 2
    stride: 2
  }
}
layer {
  name: "conv4_1"
  type: "Convolution"
  bottom: "pool3"
  top: "conv4_1"
  param {
    lr_mult: 1
    decay_mult: 1
  }
  param {
    lr_mult: 2
    decay_mult: 0
  }
  convolution_param {
    num_output: 512
    pad: 1
    kernel_size: 3
    weight_filler {
      type: "xavier"
    }
    bias_filler {
      type: "constant"
      value: 0
    }
  }
}
layer {
  name: "relu4_1"
  type: "ReLU"
  bottom: "conv4_1"
  top: "conv4_1"
}
layer {
  name: "conv4_2"
  type: "Convolution"
  bottom: "conv4_1"
  top: "conv4_2"
  param {
    lr_mult: 1
    decay_mult: 1
  }
  param {
    lr_mult: 2
    decay_mult: 0
  }
  convolution_param {
    num_output: 512
    pad: 1
    kernel_size: 3
    weight_filler {
      type: "xavier"
    }
    bias_filler {
      type: "constant"
      value: 0
    }
  }
}
layer {
  name: "relu4_2"
  type: "ReLU"
  bottom: "conv4_2"
  top: "conv4_2"
}
layer {
  name: "conv4_3"
  type: "Convolution"
  bottom: "conv4_2"
  top: "conv4_3"
  param {
    lr_mult: 1
    decay_mult: 1
  }
  param {
    lr_mult: 2
    decay_mult: 0
  }
  convolution_param {
    num_output: 512
    pad: 1
    kernel_size: 3
    weight_filler {
      type: "xavier"
    }
    bias_filler {
      type: "constant"
      value: 0
    }
  }
}
layer {
  name: "relu4_3"
  type: "ReLU"
  bottom: "conv4_3"
  top: "conv4_3"
}
layer {
  name: "pool4"
  type: "Pooling"
  bottom: "conv4_3"
  top: "pool4"
  pooling_param {
    pool: MAX
    kernel_size: 2
    stride: 2
  }
}
layer {
  name: "conv5_1"
  type: "Convolution"
  bottom: "pool4"
  top: "conv5_1"
  param {
    lr_mult: 1
    decay_mult: 1
  }
  param {
    lr_mult: 2
    decay_mult: 0
  }
  convolution_param {
    num_output: 512
    pad: 1
    kernel_size: 3
    weight_filler {
      type: "xavier"
    }
    bias_filler {
      type: "constant"
      value: 0
    }
    dilation: 1
  }
}
layer {
  name: "relu5_1"
  type: "ReLU"
  bottom: "conv5_1"
  top: "conv5_1"
}
layer {
  name: "conv5_2"
  type: "Convolution"
  bottom: "conv5_1"
  top: "conv5_2"
  param {
    lr_mult: 1
    decay_mult: 1
  }
  param {
    lr_mult: 2
    decay_mult: 0
  }
  convolution_param {
    num_output: 512
    pad: 1
    kernel_size: 3
    weight_filler {
      type: "xavier"
    }
    bias_filler {
      type: "constant"
      value: 0
    }
    dilation: 1
  }
}
layer {
  name: "relu5_2"
  type: "ReLU"
  bottom: "conv5_2"
  top: "conv5_2"
}
layer {
  name: "conv5_3"
  type: "Convolution"
  bottom: "conv5_2"
  top: "conv5_3"
  param {
    lr_mult: 1
    decay_mult: 1
  }
  param {
    lr_mult: 2
    decay_mult: 0
  }
  convolution_param {
    num_output: 512
    pad: 1
    kernel_size: 3
    weight_filler {
      type: "xavier"
    }
    bias_filler {
      type: "constant"
      value: 0
    }
    dilation: 1
  }
}
layer {
  name: "relu5_3"
  type: "ReLU"
  bottom: "conv5_3"
  top: "conv5_3"
}
layer {
  name: "pool5"
  type: "Pooling"
  bottom: "conv5_3"
  top: "pool5"
  pooling_param {
    pool: MAX
    kernel_size: 3
    stride: 1
    pad: 1
  }
}
layer {
  name: "fc6"
  type: "Convolution"
  bottom: "pool5"
  top: "fc6"
  param {
    lr_mult: 1
    decay_mult: 1
  }
  param {
    lr_mult: 2
    decay_mult: 0
  }
  convolution_param {
    num_output: 1024
    pad: 6
    kernel_size: 3
    weight_filler {
      type: "xavier"
    }
    bias_filler {
      type: "constant"
      value: 0
    }
    dilation: 6
  }
}
layer {
  name: "relu6"
  type: "ReLU"
  bottom: "fc6"
  top: "fc6"
}
layer {
  name: "fc7"
  type: "Convolution"
  bottom: "fc6"
  top: "fc7"
  param {
    lr_mult: 1
    decay_mult: 1
  }
  param {
    lr_mult: 2
    decay_mult: 0
  }
  convolution_param {
    num_output: 1024
    kernel_size: 1
    weight_filler {
      type: "xavier"
    }
    bias_filler {
      type: "constant"
      value: 0
    }
  }
}
layer {
  name: "relu7"
  type: "ReLU"
  bottom: "fc7"
  top: "fc7"
}
layer {
  name: "conv6_1"
  type: "Convolution"
  bottom: "fc7"
  top: "conv6_1"
  param {
    lr_mult: 1
    decay_mult: 1
  }
  param {
    lr_mult: 2
    decay_mult: 0
  }
  convolution_param {
    num_output: 256
    pad: 0
    kernel_size: 1
    stride: 1
    weight_filler {
      type: "xavier"
    }
    bias_filler {
      type: "constant"
      value: 0
    }
  }
}
layer {
  name: "conv6_1_relu"
  type: "ReLU"
  bottom: "conv6_1"
  top: "conv6_1"
}
layer {
  name: "conv6_2"
  type: "Convolution"
  bottom: "conv6_1"
  top: "conv6_2"
  param {
    lr_mult: 1
    decay_mult: 1
  }
  param {
    lr_mult: 2
    decay_mult: 0
  }
  convolution_param {
    num_output: 512
    pad: 1
    kernel_size: 3
    stride: 2
    weight_filler {
      type: "xavier"
    }
    bias_filler {
      type: "constant"
      value: 0
    }
  }
}
layer {
  name: "conv6_2_relu"
  type: "ReLU"
  bottom: "conv6_2"
  top: "conv6_2"
}
layer {
  name: "conv7_1"
  type: "Convolution"
  bottom: "conv6_2"
  top: "conv7_1"
  param {
    lr_mult: 1
    decay_mult: 1
  }
  param {
    lr_mult: 2
    decay_mult: 0
  }
  convolution_param {
    num_output: 128
    pad: 0
    kernel_size: 1
    stride: 1
    weight_filler {
      type: "xavier"
    }
    bias_filler {
      type: "constant"
      value: 0
    }
  }
}
layer {
  name: "conv7_1_relu"
  type: "ReLU"
  bottom: "conv7_1"
  top: "conv7_1"
}
layer {
  name: "conv7_2"
  type: "Convolution"
  bottom: "conv7_1"
  top: "conv7_2"
  param {
    lr_mult: 1
    decay_mult: 1
  }
  param {
    lr_mult: 2
    decay_mult: 0
  }
  convolution_param {
    num_output: 256
    pad: 1
    kernel_size: 3
    stride: 2
    weight_filler {
      type: "xavier"
    }
    bias_filler {
      type: "constant"
      value: 0
    }
  }
}
layer {
  name: "conv7_2_relu"
  type: "ReLU"
  bottom: "conv7_2"
  top: "conv7_2"
}
layer {
  name: "conv8_1"
  type: "Convolution"
  bottom: "conv7_2"
  top: "conv8_1"
  param {
    lr_mult: 1
    decay_mult: 1
  }
  param {
    lr_mult: 2
    decay_mult: 0
  }
  convolution_param {
    num_output: 128
    pad: 0
    kernel_size: 1
    stride: 1
    weight_filler {
      type: "xavier"
    }
    bias_filler {
      type: "constant"
      value: 0
    }
  }
}
layer {
  name: "conv8_1_relu"
  type: "ReLU"
  bottom: "conv8_1"
  top: "conv8_1"
}
layer {
  name: "conv8_2"
  type: "Convolution"
  bottom: "conv8_1"
  top: "conv8_2"
  param {
    lr_mult: 1
    decay_mult: 1
  }
  param {
    lr_mult: 2
    decay_mult: 0
  }
  convolution_param {
    num_output: 256
    pad: 0
    kernel_size: 3
    stride: 1
    weight_filler {
      type: "xavier"
    }
    bias_filler {
      type: "constant"
      value: 0
    }
  }
}
layer {
  name: "conv8_2_relu"
  type: "ReLU"
  bottom: "conv8_2"
  top: "conv8_2"
}
layer {
  name: "conv9_1"
  type: "Convolution"
  bottom: "conv8_2"
  top: "conv9_1"
  param {
    lr_mult: 1
    decay_mult: 1
  }
  param {
    lr_mult: 2
    decay_mult: 0
  }
  convolution_param {
    num_output: 128
    pad: 0
    kernel_size: 1
    stride: 1
    weight_filler {
      type: "xavier"
    }
    bias_filler {
      type: "constant"
      value: 0
    }
  }
}
layer {
  name: "conv9_1_relu"
  type: "ReLU"
  bottom: "conv9_1"
  top: "conv9_1"
}
layer {
  name: "conv9_2"
  type: "Convolution"
  bottom: "conv9_1"
  top: "conv9_2"
  param {
    lr_mult: 1
    decay_mult: 1
  }
  param {
    lr_mult: 2
    decay_mult: 0
  }
  convolution_param {
    num_output: 256
    pad: 0
    kernel_size: 3
    stride: 1
    weight_filler {
      type: "xavier"
    }
    bias_filler {
      type: "constant"
      value: 0
    }
  }
}
layer {
  name: "conv9_2_relu"
  type: "ReLU"
  bottom: "conv9_2"
  top: "conv9_2"
}
layer {
  name: "conv4_3_norm"
  type: "Normalize"
  bottom: "conv4_3"
  top: "conv4_3_norm"
  norm_param {
    across_spatial: false
    scale_filler {
      type: "constant"
      value: 20
    }
    channel_shared: false
  }
}
layer {
  name: "conv4_3_norm_mbox_loc"
  type: "Convolution"
  bottom: "conv4_3_norm"
  top: "conv4_3_norm_mbox_loc"
  param {
    lr_mult: 1
    decay_mult: 1
  }
  param {
    lr_mult: 2
    decay_mult: 0
  }
  convolution_param {
    num_output: 16
    pad: 1
    kernel_size: 3
    stride: 1
    weight_filler {
      type: "xavier"
    }
    bias_filler {
      type: "constant"
      value: 0
    }
  }
}
layer {
  name: "conv4_3_norm_mbox_loc_perm"
  type: "Permute"
  bottom: "conv4_3_norm_mbox_loc"
  top: "conv4_3_norm_mbox_loc_perm"
  permute_param {
    order: 0
    order: 2
    order: 3
    order: 1
  }
}
layer {
  name: "conv4_3_norm_mbox_loc_flat"
  type: "Flatten"
  bottom: "conv4_3_norm_mbox_loc_perm"
  top: "conv4_3_norm_mbox_loc_flat"
  flatten_param {
    axis: 1
  }
}
layer {
  name: "conv4_3_norm_mbox_conf"
  type: "Convolution"
  bottom: "conv4_3_norm"
  top: "conv4_3_norm_mbox_conf"
  param {
    lr_mult: 1
    decay_mult: 1
  }
  param {
    lr_mult: 2
    decay_mult: 0
  }
  convolution_param {
    num_output: 12
    pad: 1
    kernel_size: 3
    stride: 1
    weight_filler {
      type: "xavier"
    }
    bias_filler {
      type: "constant"
      value: 0
    }
  }
}
layer {
  name: "conv4_3_norm_mbox_conf_perm"
  type: "Permute"
  bottom: "conv4_3_norm_mbox_conf"
  top: "conv4_3_norm_mbox_conf_perm"
  permute_param {
    order: 0
    order: 2
    order: 3
    order: 1
  }
}
layer {
  name: "conv4_3_norm_mbox_conf_flat"
  type: "Flatten"
  bottom: "conv4_3_norm_mbox_conf_perm"
  top: "conv4_3_norm_mbox_conf_flat"
  flatten_param {
    axis: 1
  }
}
layer {
  name: "conv4_3_norm_mbox_priorbox"
  type: "PriorBox"
  bottom: "conv4_3_norm"
  bottom: "data"
  top: "conv4_3_norm_mbox_priorbox"
  prior_box_param {
    min_size: 30
    max_size: 60
    aspect_ratio: 2
    flip: true
    clip: false
    variance: 0.1
    variance: 0.1
    variance: 0.2
    variance: 0.2
    step: 8
    offset: 0.5
  }
}
layer {
  name: "fc7_mbox_loc"
  type: "Convolution"
  bottom: "fc7"
  top: "fc7_mbox_loc"
  param {
    lr_mult: 1
    decay_mult: 1
  }
  param {
    lr_mult: 2
    decay_mult: 0
  }
  convolution_param {
    num_output: 24
    pad: 1
    kernel_size: 3
    stride: 1
    weight_filler {
      type: "xavier"
    }
    bias_filler {
      type: "constant"
      value: 0
    }
  }
}
layer {
  name: "fc7_mbox_loc_perm"
  type: "Permute"
  bottom: "fc7_mbox_loc"
  top: "fc7_mbox_loc_perm"
  permute_param {
    order: 0
    order: 2
    order: 3
    order: 1
  }
}
layer {
  name: "fc7_mbox_loc_flat"
  type: "Flatten"
  bottom: "fc7_mbox_loc_perm"
  top: "fc7_mbox_loc_flat"
  flatten_param {
    axis: 1
  }
}
layer {
  name: "fc7_mbox_conf"
  type: "Convolution"
  bottom: "fc7"
  top: "fc7_mbox_conf"
  param {
    lr_mult: 1
    decay_mult: 1
  }
  param {
    lr_mult: 2
    decay_mult: 0
  }
  convolution_param {
    num_output: 18
    pad: 1
    kernel_size: 3
    stride: 1
    weight_filler {
      type: "xavier"
    }
    bias_filler {
      type: "constant"
      value: 0
    }
  }
}
layer {
  name: "fc7_mbox_conf_perm"
  type: "Permute"
  bottom: "fc7_mbox_conf"
  top: "fc7_mbox_conf_perm"
  permute_param {
    order: 0
    order: 2
    order: 3
    order: 1
  }
}
layer {
  name: "fc7_mbox_conf_flat"
  type: "Flatten"
  bottom: "fc7_mbox_conf_perm"
  top: "fc7_mbox_conf_flat"
  flatten_param {
    axis: 1
  }
}
layer {
  name: "fc7_mbox_priorbox"
  type: "PriorBox"
  bottom: "fc7"
  bottom: "data"
  top: "fc7_mbox_priorbox"
  prior_box_param {
    min_size: 60
    max_size: 111
    aspect_ratio: 2
    aspect_ratio: 3
    flip: true
    clip: false
    variance: 0.1
    variance: 0.1
    variance: 0.2
    variance: 0.2
    step: 16
    offset: 0.5
  }
}
layer {
  name: "conv6_2_mbox_loc"
  type: "Convolution"
  bottom: "conv6_2"
  top: "conv6_2_mbox_loc"
  param {
    lr_mult: 1
    decay_mult: 1
  }
  param {
    lr_mult: 2
    decay_mult: 0
  }
  convolution_param {
    num_output: 24
    pad: 1
    kernel_size: 3
    stride: 1
    weight_filler {
      type: "xavier"
    }
    bias_filler {
      type: "constant"
      value: 0
    }
  }
}
layer {
  name: "conv6_2_mbox_loc_perm"
  type: "Permute"
  bottom: "conv6_2_mbox_loc"
  top: "conv6_2_mbox_loc_perm"
  permute_param {
    order: 0
    order: 2
    order: 3
    order: 1
  }
}
layer {
  name: "conv6_2_mbox_loc_flat"
  type: "Flatten"
  bottom: "conv6_2_mbox_loc_perm"
  top: "conv6_2_mbox_loc_flat"
  flatten_param {
    axis: 1
  }
}
layer {
  name: "conv6_2_mbox_conf"
  type: "Convolution"
  bottom: "conv6_2"
  top: "conv6_2_mbox_conf"
  param {
    lr_mult: 1
    decay_mult: 1
  }
  param {
    lr_mult: 2
    decay_mult: 0
  }
  convolution_param {
    num_output: 18
    pad: 1
    kernel_size: 3
    stride: 1
    weight_filler {
      type: "xavier"
    }
    bias_filler {
      type: "constant"
      value: 0
    }
  }
}
layer {
  name: "conv6_2_mbox_conf_perm"
  type: "Permute"
  bottom: "conv6_2_mbox_conf"
  top: "conv6_2_mbox_conf_perm"
  permute_param {
    order: 0
    order: 2
    order: 3
    order: 1
  }
}
layer {
  name: "conv6_2_mbox_conf_flat"
  type: "Flatten"
  bottom: "conv6_2_mbox_conf_perm"
  top: "conv6_2_mbox_conf_flat"
  flatten_param {
    axis: 1
  }
}
layer {
  name: "conv6_2_mbox_priorbox"
  type: "PriorBox"
  bottom: "conv6_2"
  bottom: "data"
  top: "conv6_2_mbox_priorbox"
  prior_box_param {
    min_size: 111
    max_size: 162
    aspect_ratio: 2
    aspect_ratio: 3
    flip: true
    clip: false
    variance: 0.1
    variance: 0.1
    variance: 0.2
    variance: 0.2
    step: 32
    offset: 0.5
  }
}
layer {
  name: "conv7_2_mbox_loc"
  type: "Convolution"
  bottom: "conv7_2"
  top: "conv7_2_mbox_loc"
  param {
    lr_mult: 1
    decay_mult: 1
  }
  param {
    lr_mult: 2
    decay_mult: 0
  }
  convolution_param {
    num_output: 24
    pad: 1
    kernel_size: 3
    stride: 1
    weight_filler {
      type: "xavier"
    }
    bias_filler {
      type: "constant"
      value: 0
    }
  }
}
layer {
  name: "conv7_2_mbox_loc_perm"
  type: "Permute"
  bottom: "conv7_2_mbox_loc"
  top: "conv7_2_mbox_loc_perm"
  permute_param {
    order: 0
    order: 2
    order: 3
    order: 1
  }
}
layer {
  name: "conv7_2_mbox_loc_flat"
  type: "Flatten"
  bottom: "conv7_2_mbox_loc_perm"
  top: "conv7_2_mbox_loc_flat"
  flatten_param {
    axis: 1
  }
}
layer {
  name: "conv7_2_mbox_conf"
  type: "Convolution"
  bottom: "conv7_2"
  top: "conv7_2_mbox_conf"
  param {
    lr_mult: 1
    decay_mult: 1
  }
  param {
    lr_mult: 2
    decay_mult: 0
  }
  convolution_param {
    num_output: 18
    pad: 1
    kernel_size: 3
    stride: 1
    weight_filler {
      type: "xavier"
    }
    bias_filler {
      type: "constant"
      value: 0
    }
  }
}
layer {
  name: "conv7_2_mbox_conf_perm"
  type: "Permute"
  bottom: "conv7_2_mbox_conf"
  top: "conv7_2_mbox_conf_perm"
  permute_param {
    order: 0
    order: 2
    order: 3
    order: 1
  }
}
layer {
  name: "conv7_2_mbox_conf_flat"
  type: "Flatten"
  bottom: "conv7_2_mbox_conf_perm"
  top: "conv7_2_mbox_conf_flat"
  flatten_param {
    axis: 1
  }
}
layer {
  name: "conv7_2_mbox_priorbox"
  type: "PriorBox"
  bottom: "conv7_2"
  bottom: "data"
  top: "conv7_2_mbox_priorbox"
  prior_box_param {
    min_size: 162
    max_size: 213
    aspect_ratio: 2
    aspect_ratio: 3
    flip: true
    clip: false
    variance: 0.1
    variance: 0.1
    variance: 0.2
    variance: 0.2
    step: 64
    offset: 0.5
  }
}
layer {
  name: "conv8_2_mbox_loc"
  type: "Convolution"
  bottom: "conv8_2"
  top: "conv8_2_mbox_loc"
  param {
    lr_mult: 1
    decay_mult: 1
  }
  param {
    lr_mult: 2
    decay_mult: 0
  }
  convolution_param {
    num_output: 16
    pad: 1
    kernel_size: 3
    stride: 1
    weight_filler {
      type: "xavier"
    }
    bias_filler {
      type: "constant"
      value: 0
    }
  }
}
layer {
  name: "conv8_2_mbox_loc_perm"
  type: "Permute"
  bottom: "conv8_2_mbox_loc"
  top: "conv8_2_mbox_loc_perm"
  permute_param {
    order: 0
    order: 2
    order: 3
    order: 1
  }
}
layer {
  name: "conv8_2_mbox_loc_flat"
  type: "Flatten"
  bottom: "conv8_2_mbox_loc_perm"
  top: "conv8_2_mbox_loc_flat"
  flatten_param {
    axis: 1
  }
}
layer {
  name: "conv8_2_mbox_conf"
  type: "Convolution"
  bottom: "conv8_2"
  top: "conv8_2_mbox_conf"
  param {
    lr_mult: 1
    decay_mult: 1
  }
  param {
    lr_mult: 2
    decay_mult: 0
  }
  convolution_param {
    num_output: 12
    pad: 1
    kernel_size: 3
    stride: 1
    weight_filler {
      type: "xavier"
    }
    bias_filler {
      type: "constant"
      value: 0
    }
  }
}
layer {
  name: "conv8_2_mbox_conf_perm"
  type: "Permute"
  bottom: "conv8_2_mbox_conf"
  top: "conv8_2_mbox_conf_perm"
  permute_param {
    order: 0
    order: 2
    order: 3
    order: 1
  }
}
layer {
  name: "conv8_2_mbox_conf_flat"
  type: "Flatten"
  bottom: "conv8_2_mbox_conf_perm"
  top: "conv8_2_mbox_conf_flat"
  flatten_param {
    axis: 1
  }
}
layer {
  name: "conv8_2_mbox_priorbox"
  type: "PriorBox"
  bottom: "conv8_2"
  bottom: "data"
  top: "conv8_2_mbox_priorbox"
  prior_box_param {
    min_size: 213
    max_size: 264
    aspect_ratio: 2
    flip: true
    clip: false
    variance: 0.1
    variance: 0.1
    variance: 0.2
    variance: 0.2
    step: 100
    offset: 0.5
  }
}
layer {
  name: "conv9_2_mbox_loc"
  type: "Convolution"
  bottom: "conv9_2"
  top: "conv9_2_mbox_loc"
  param {
    lr_mult: 1
    decay_mult: 1
  }
  param {
    lr_mult: 2
    decay_mult: 0
  }
  convolution_param {
    num_output: 16
    pad: 1
    kernel_size: 3
    stride: 1
    weight_filler {
      type: "xavier"
    }
    bias_filler {
      type: "constant"
      value: 0
    }
  }
}
layer {
  name: "conv9_2_mbox_loc_perm"
  type: "Permute"
  bottom: "conv9_2_mbox_loc"
  top: "conv9_2_mbox_loc_perm"
  permute_param {
    order: 0
    order: 2
    order: 3
    order: 1
  }
}
layer {
  name: "conv9_2_mbox_loc_flat"
  type: "Flatten"
  bottom: "conv9_2_mbox_loc_perm"
  top: "conv9_2_mbox_loc_flat"
  flatten_param {
    axis: 1
  }
}
layer {
  name: "conv9_2_mbox_conf"
  type: "Convolution"
  bottom: "conv9_2"
  top: "conv9_2_mbox_conf"
  param {
    lr_mult: 1
    decay_mult: 1
  }
  param {
    lr_mult: 2
    decay_mult: 0
  }
  convolution_param {
    num_output: 12
    pad: 1
    kernel_size: 3
    stride: 1
    weight_filler {
      type: "xavier"
    }
    bias_filler {
      type: "constant"
      value: 0
    }
  }
}
layer {
  name: "conv9_2_mbox_conf_perm"
  type: "Permute"
  bottom: "conv9_2_mbox_conf"
  top: "conv9_2_mbox_conf_perm"
  permute_param {
    order: 0
    order: 2
    order: 3
    order: 1
  }
}
layer {
  name: "conv9_2_mbox_conf_flat"
  type: "Flatten"
  bottom: "conv9_2_mbox_conf_perm"
  top: "conv9_2_mbox_conf_flat"
  flatten_param {
    axis: 1
  }
}
layer {
  name: "conv9_2_mbox_priorbox"
  type: "PriorBox"
  bottom: "conv9_2"
  bottom: "data"
  top: "conv9_2_mbox_priorbox"
  prior_box_param {
    min_size: 264
    max_size: 315
    aspect_ratio: 2
    flip: true
    clip: false
    variance: 0.1
    variance: 0.1
    variance: 0.2
    variance: 0.2
    step: 300
    offset: 0.5
  }
}
layer {
  name: "mbox_loc"
  type: "Concat"
  bottom: "conv4_3_norm_mbox_loc_flat"
  bottom: "fc7_mbox_loc_flat"
  bottom: "conv6_2_mbox_loc_flat"
  bottom: "conv7_2_mbox_loc_flat"
  bottom: "conv8_2_mbox_loc_flat"
  bottom: "conv9_2_mbox_loc_flat"
  top: "mbox_loc"
  concat_param {
    axis: 1
  }
}
layer {
  name: "mbox_conf"
  type: "Concat"
  bottom: "conv4_3_norm_mbox_conf_flat"
  bottom: "fc7_mbox_conf_flat"
  bottom: "conv6_2_mbox_conf_flat"
  bottom: "conv7_2_mbox_conf_flat"
  bottom: "conv8_2_mbox_conf_flat"
  bottom: "conv9_2_mbox_conf_flat"
  top: "mbox_conf"
  concat_param {
    axis: 1
  }
}
layer {
  name: "mbox_priorbox"
  type: "Concat"
  bottom: "conv4_3_norm_mbox_priorbox"
  bottom: "fc7_mbox_priorbox"
  bottom: "conv6_2_mbox_priorbox"
  bottom: "conv7_2_mbox_priorbox"
  bottom: "conv8_2_mbox_priorbox"
  bottom: "conv9_2_mbox_priorbox"
  top: "mbox_priorbox"
  concat_param {
    axis: 2
  }
}
layer {
  name: "mbox_conf_reshape"
  type: "Reshape"
  bottom: "mbox_conf"
  top: "mbox_conf_reshape"
  reshape_param {
    shape {
      dim: 0
      dim: -1
      dim: 3
    }
  }
}
layer {
  name: "mbox_conf_softmax"
  type: "Softmax"
  bottom: "mbox_conf_reshape"
  top: "mbox_conf_softmax"
  softmax_param {
    axis: 2
  }
}
layer {
  name: "mbox_conf_flatten"
  type: "Flatten"
  bottom: "mbox_conf_softmax"
  top: "mbox_conf_flatten"
  flatten_param {
    axis: 1
  }
}
layer {
  name: "detection_out"
  type: "DetectionOutput"
  bottom: "mbox_loc"
  bottom: "mbox_conf_flatten"
  bottom: "mbox_priorbox"
  top: "detection_out"
  include {
    phase: TEST
  }
  detection_output_param {
    num_classes: 3
    share_location: true
    background_label_id: 0
    nms_param {
      nms_threshold: 0.45
      top_k: 400
    }
    save_output_param {
      output_directory: "/home/swli/data/VOCdevkit/results/VOC2007/SSD_300x300/Main"
      output_name_prefix: "comp4_det_test_"
      output_format: "VOC"
      label_map_file: "data/VOC0712/labelmap_voc.prototxt"
      name_size_file: "data/VOC0712/test_name_size.txt"
      num_test_image: 991
    }
    code_type: CENTER_SIZE
    keep_top_k: 200
    confidence_threshold: 0.01
  }
}
layer {
  name: "detection_eval"
  type: "DetectionEvaluate"
  bottom: "detection_out"
  bottom: "label"
  top: "detection_eval"
  include {
    phase: TEST
  }
  detection_evaluate_param {
    num_classes: 3
    background_label_id: 0
    overlap_threshold: 0.5
    evaluate_difficult_gt: false
    name_size_file: "data/VOC0712/test_name_size.txt"
  }
}
I1226 10:39:27.978408 48847 layer_factory.hpp:77] Creating layer data
I1226 10:39:27.978528 48847 net.cpp:100] Creating Layer data
I1226 10:39:27.978543 48847 net.cpp:408] data -> data
I1226 10:39:27.978564 48847 net.cpp:408] data -> label
I1226 10:39:28.001739 48912 db_lmdb.cpp:35] Opened lmdb examples/VOC0712/VOC0712_test_lmdb
I1226 10:39:28.067914 48847 annotated_data_layer.cpp:62] output data size: 8,3,300,300
I1226 10:39:28.139901 48847 net.cpp:150] Setting up data
I1226 10:39:28.139958 48847 net.cpp:157] Top shape: 8 3 300 300 (2160000)
I1226 10:39:28.139971 48847 net.cpp:157] Top shape: 1 1 2 8 (16)
I1226 10:39:28.139977 48847 net.cpp:165] Memory required for data: 8640064
I1226 10:39:28.139989 48847 layer_factory.hpp:77] Creating layer data_data_0_split
I1226 10:39:28.140017 48847 net.cpp:100] Creating Layer data_data_0_split
I1226 10:39:28.140029 48847 net.cpp:434] data_data_0_split <- data
I1226 10:39:28.140048 48847 net.cpp:408] data_data_0_split -> data_data_0_split_0
I1226 10:39:28.140071 48847 net.cpp:408] data_data_0_split -> data_data_0_split_1
I1226 10:39:28.140086 48847 net.cpp:408] data_data_0_split -> data_data_0_split_2
I1226 10:39:28.140105 48847 net.cpp:408] data_data_0_split -> data_data_0_split_3
I1226 10:39:28.140120 48847 net.cpp:408] data_data_0_split -> data_data_0_split_4
I1226 10:39:28.140133 48847 net.cpp:408] data_data_0_split -> data_data_0_split_5
I1226 10:39:28.140149 48847 net.cpp:408] data_data_0_split -> data_data_0_split_6
I1226 10:39:28.140406 48847 net.cpp:150] Setting up data_data_0_split
I1226 10:39:28.140420 48847 net.cpp:157] Top shape: 8 3 300 300 (2160000)
I1226 10:39:28.140430 48847 net.cpp:157] Top shape: 8 3 300 300 (2160000)
I1226 10:39:28.140439 48847 net.cpp:157] Top shape: 8 3 300 300 (2160000)
I1226 10:39:28.140450 48847 net.cpp:157] Top shape: 8 3 300 300 (2160000)
I1226 10:39:28.140456 48847 net.cpp:157] Top shape: 8 3 300 300 (2160000)
I1226 10:39:28.140465 48847 net.cpp:157] Top shape: 8 3 300 300 (2160000)
I1226 10:39:28.140473 48847 net.cpp:157] Top shape: 8 3 300 300 (2160000)
I1226 10:39:28.140482 48847 net.cpp:165] Memory required for data: 69120064
I1226 10:39:28.140529 48847 layer_factory.hpp:77] Creating layer conv1_1
I1226 10:39:28.140554 48847 net.cpp:100] Creating Layer conv1_1
I1226 10:39:28.140563 48847 net.cpp:434] conv1_1 <- data_data_0_split_0
I1226 10:39:28.140578 48847 net.cpp:408] conv1_1 -> conv1_1
I1226 10:39:28.141330 48847 net.cpp:150] Setting up conv1_1
I1226 10:39:28.141351 48847 net.cpp:157] Top shape: 8 64 300 300 (46080000)
I1226 10:39:28.141361 48847 net.cpp:165] Memory required for data: 253440064
I1226 10:39:28.141397 48847 layer_factory.hpp:77] Creating layer relu1_1
I1226 10:39:28.141465 48847 net.cpp:100] Creating Layer relu1_1
I1226 10:39:28.141479 48847 net.cpp:434] relu1_1 <- conv1_1
I1226 10:39:28.141489 48847 net.cpp:395] relu1_1 -> conv1_1 (in-place)
I1226 10:39:28.141510 48847 net.cpp:150] Setting up relu1_1
I1226 10:39:28.141522 48847 net.cpp:157] Top shape: 8 64 300 300 (46080000)
I1226 10:39:28.141531 48847 net.cpp:165] Memory required for data: 437760064
I1226 10:39:28.141542 48847 layer_factory.hpp:77] Creating layer conv1_2
I1226 10:39:28.141567 48847 net.cpp:100] Creating Layer conv1_2
I1226 10:39:28.141578 48847 net.cpp:434] conv1_2 <- conv1_1
I1226 10:39:28.141590 48847 net.cpp:408] conv1_2 -> conv1_2
I1226 10:39:28.162566 48847 net.cpp:150] Setting up conv1_2
I1226 10:39:28.162606 48847 net.cpp:157] Top shape: 8 64 300 300 (46080000)
I1226 10:39:28.162611 48847 net.cpp:165] Memory required for data: 622080064
I1226 10:39:28.162628 48847 layer_factory.hpp:77] Creating layer relu1_2
I1226 10:39:28.162642 48847 net.cpp:100] Creating Layer relu1_2
I1226 10:39:28.162649 48847 net.cpp:434] relu1_2 <- conv1_2
I1226 10:39:28.162658 48847 net.cpp:395] relu1_2 -> conv1_2 (in-place)
I1226 10:39:28.162672 48847 net.cpp:150] Setting up relu1_2
I1226 10:39:28.162678 48847 net.cpp:157] Top shape: 8 64 300 300 (46080000)
I1226 10:39:28.162683 48847 net.cpp:165] Memory required for data: 806400064
I1226 10:39:28.162685 48847 layer_factory.hpp:77] Creating layer pool1
I1226 10:39:28.162693 48847 net.cpp:100] Creating Layer pool1
I1226 10:39:28.162696 48847 net.cpp:434] pool1 <- conv1_2
I1226 10:39:28.162703 48847 net.cpp:408] pool1 -> pool1
I1226 10:39:28.162760 48847 net.cpp:150] Setting up pool1
I1226 10:39:28.162768 48847 net.cpp:157] Top shape: 8 64 150 150 (11520000)
I1226 10:39:28.162771 48847 net.cpp:165] Memory required for data: 852480064
I1226 10:39:28.162775 48847 layer_factory.hpp:77] Creating layer conv2_1
I1226 10:39:28.162788 48847 net.cpp:100] Creating Layer conv2_1
I1226 10:39:28.162793 48847 net.cpp:434] conv2_1 <- pool1
I1226 10:39:28.162801 48847 net.cpp:408] conv2_1 -> conv2_1
I1226 10:39:28.163630 48847 net.cpp:150] Setting up conv2_1
I1226 10:39:28.163640 48847 net.cpp:157] Top shape: 8 128 150 150 (23040000)
I1226 10:39:28.163643 48847 net.cpp:165] Memory required for data: 944640064
I1226 10:39:28.163652 48847 layer_factory.hpp:77] Creating layer relu2_1
I1226 10:39:28.163663 48847 net.cpp:100] Creating Layer relu2_1
I1226 10:39:28.163668 48847 net.cpp:434] relu2_1 <- conv2_1
I1226 10:39:28.163674 48847 net.cpp:395] relu2_1 -> conv2_1 (in-place)
I1226 10:39:28.163681 48847 net.cpp:150] Setting up relu2_1
I1226 10:39:28.163687 48847 net.cpp:157] Top shape: 8 128 150 150 (23040000)
I1226 10:39:28.163691 48847 net.cpp:165] Memory required for data: 1036800064
I1226 10:39:28.163693 48847 layer_factory.hpp:77] Creating layer conv2_2
I1226 10:39:28.163702 48847 net.cpp:100] Creating Layer conv2_2
I1226 10:39:28.163707 48847 net.cpp:434] conv2_2 <- conv2_1
I1226 10:39:28.163714 48847 net.cpp:408] conv2_2 -> conv2_2
I1226 10:39:28.167011 48847 net.cpp:150] Setting up conv2_2
I1226 10:39:28.167027 48847 net.cpp:157] Top shape: 8 128 150 150 (23040000)
I1226 10:39:28.167033 48847 net.cpp:165] Memory required for data: 1128960064
I1226 10:39:28.167043 48847 layer_factory.hpp:77] Creating layer relu2_2
I1226 10:39:28.167052 48847 net.cpp:100] Creating Layer relu2_2
I1226 10:39:28.167058 48847 net.cpp:434] relu2_2 <- conv2_2
I1226 10:39:28.167065 48847 net.cpp:395] relu2_2 -> conv2_2 (in-place)
I1226 10:39:28.169797 48847 net.cpp:150] Setting up relu2_2
I1226 10:39:28.169826 48847 net.cpp:157] Top shape: 8 128 150 150 (23040000)
I1226 10:39:28.169829 48847 net.cpp:165] Memory required for data: 1221120064
I1226 10:39:28.169836 48847 layer_factory.hpp:77] Creating layer pool2
I1226 10:39:28.169847 48847 net.cpp:100] Creating Layer pool2
I1226 10:39:28.169850 48847 net.cpp:434] pool2 <- conv2_2
I1226 10:39:28.169858 48847 net.cpp:408] pool2 -> pool2
I1226 10:39:28.170223 48847 net.cpp:150] Setting up pool2
I1226 10:39:28.170341 48847 net.cpp:157] Top shape: 8 128 75 75 (5760000)
I1226 10:39:28.170399 48847 net.cpp:165] Memory required for data: 1244160064
I1226 10:39:28.170415 48847 layer_factory.hpp:77] Creating layer conv3_1
I1226 10:39:28.170445 48847 net.cpp:100] Creating Layer conv3_1
I1226 10:39:28.170460 48847 net.cpp:434] conv3_1 <- pool2
I1226 10:39:28.170480 48847 net.cpp:408] conv3_1 -> conv3_1
I1226 10:39:28.180521 48847 net.cpp:150] Setting up conv3_1
I1226 10:39:28.180552 48847 net.cpp:157] Top shape: 8 256 75 75 (11520000)
I1226 10:39:28.180555 48847 net.cpp:165] Memory required for data: 1290240064
I1226 10:39:28.180572 48847 layer_factory.hpp:77] Creating layer relu3_1
I1226 10:39:28.180582 48847 net.cpp:100] Creating Layer relu3_1
I1226 10:39:28.180588 48847 net.cpp:434] relu3_1 <- conv3_1
I1226 10:39:28.180596 48847 net.cpp:395] relu3_1 -> conv3_1 (in-place)
I1226 10:39:28.180608 48847 net.cpp:150] Setting up relu3_1
I1226 10:39:28.180614 48847 net.cpp:157] Top shape: 8 256 75 75 (11520000)
I1226 10:39:28.180618 48847 net.cpp:165] Memory required for data: 1336320064
I1226 10:39:28.180621 48847 layer_factory.hpp:77] Creating layer conv3_2
I1226 10:39:28.180632 48847 net.cpp:100] Creating Layer conv3_2
I1226 10:39:28.180637 48847 net.cpp:434] conv3_2 <- conv3_1
I1226 10:39:28.180644 48847 net.cpp:408] conv3_2 -> conv3_2
I1226 10:39:28.205348 48847 net.cpp:150] Setting up conv3_2
I1226 10:39:28.205392 48847 net.cpp:157] Top shape: 8 256 75 75 (11520000)
I1226 10:39:28.205397 48847 net.cpp:165] Memory required for data: 1382400064
I1226 10:39:28.205420 48847 layer_factory.hpp:77] Creating layer relu3_2
I1226 10:39:28.205433 48847 net.cpp:100] Creating Layer relu3_2
I1226 10:39:28.205438 48847 net.cpp:434] relu3_2 <- conv3_2
I1226 10:39:28.205447 48847 net.cpp:395] relu3_2 -> conv3_2 (in-place)
I1226 10:39:28.205461 48847 net.cpp:150] Setting up relu3_2
I1226 10:39:28.205467 48847 net.cpp:157] Top shape: 8 256 75 75 (11520000)
I1226 10:39:28.205471 48847 net.cpp:165] Memory required for data: 1428480064
I1226 10:39:28.205474 48847 layer_factory.hpp:77] Creating layer conv3_3
I1226 10:39:28.205492 48847 net.cpp:100] Creating Layer conv3_3
I1226 10:39:28.205497 48847 net.cpp:434] conv3_3 <- conv3_2
I1226 10:39:28.205503 48847 net.cpp:408] conv3_3 -> conv3_3
I1226 10:39:28.215168 48847 net.cpp:150] Setting up conv3_3
I1226 10:39:28.215209 48847 net.cpp:157] Top shape: 8 256 75 75 (11520000)
I1226 10:39:28.215214 48847 net.cpp:165] Memory required for data: 1474560064
I1226 10:39:28.215224 48847 layer_factory.hpp:77] Creating layer relu3_3
I1226 10:39:28.215236 48847 net.cpp:100] Creating Layer relu3_3
I1226 10:39:28.215243 48847 net.cpp:434] relu3_3 <- conv3_3
I1226 10:39:28.215252 48847 net.cpp:395] relu3_3 -> conv3_3 (in-place)
I1226 10:39:28.215263 48847 net.cpp:150] Setting up relu3_3
I1226 10:39:28.215267 48847 net.cpp:157] Top shape: 8 256 75 75 (11520000)
I1226 10:39:28.215271 48847 net.cpp:165] Memory required for data: 1520640064
I1226 10:39:28.215275 48847 layer_factory.hpp:77] Creating layer pool3
I1226 10:39:28.215281 48847 net.cpp:100] Creating Layer pool3
I1226 10:39:28.215284 48847 net.cpp:434] pool3 <- conv3_3
I1226 10:39:28.215293 48847 net.cpp:408] pool3 -> pool3
I1226 10:39:28.215344 48847 net.cpp:150] Setting up pool3
I1226 10:39:28.215353 48847 net.cpp:157] Top shape: 8 256 38 38 (2957312)
I1226 10:39:28.215355 48847 net.cpp:165] Memory required for data: 1532469312
I1226 10:39:28.215360 48847 layer_factory.hpp:77] Creating layer conv4_1
I1226 10:39:28.215373 48847 net.cpp:100] Creating Layer conv4_1
I1226 10:39:28.215409 48847 net.cpp:434] conv4_1 <- pool3
I1226 10:39:28.215416 48847 net.cpp:408] conv4_1 -> conv4_1
I1226 10:39:28.244431 48847 net.cpp:150] Setting up conv4_1
I1226 10:39:28.244482 48847 net.cpp:157] Top shape: 8 512 38 38 (5914624)
I1226 10:39:28.244488 48847 net.cpp:165] Memory required for data: 1556127808
I1226 10:39:28.244503 48847 layer_factory.hpp:77] Creating layer relu4_1
I1226 10:39:28.244520 48847 net.cpp:100] Creating Layer relu4_1
I1226 10:39:28.244527 48847 net.cpp:434] relu4_1 <- conv4_1
I1226 10:39:28.244541 48847 net.cpp:395] relu4_1 -> conv4_1 (in-place)
I1226 10:39:28.244560 48847 net.cpp:150] Setting up relu4_1
I1226 10:39:28.244570 48847 net.cpp:157] Top shape: 8 512 38 38 (5914624)
I1226 10:39:28.244575 48847 net.cpp:165] Memory required for data: 1579786304
I1226 10:39:28.244581 48847 layer_factory.hpp:77] Creating layer conv4_2
I1226 10:39:28.244603 48847 net.cpp:100] Creating Layer conv4_2
I1226 10:39:28.244611 48847 net.cpp:434] conv4_2 <- conv4_1
I1226 10:39:28.244624 48847 net.cpp:408] conv4_2 -> conv4_2
I1226 10:39:28.287369 48847 net.cpp:150] Setting up conv4_2
I1226 10:39:28.287451 48847 net.cpp:157] Top shape: 8 512 38 38 (5914624)
I1226 10:39:28.287477 48847 net.cpp:165] Memory required for data: 1603444800
I1226 10:39:28.287518 48847 layer_factory.hpp:77] Creating layer relu4_2
I1226 10:39:28.287542 48847 net.cpp:100] Creating Layer relu4_2
I1226 10:39:28.287549 48847 net.cpp:434] relu4_2 <- conv4_2
I1226 10:39:28.287561 48847 net.cpp:395] relu4_2 -> conv4_2 (in-place)
I1226 10:39:28.287576 48847 net.cpp:150] Setting up relu4_2
I1226 10:39:28.287587 48847 net.cpp:157] Top shape: 8 512 38 38 (5914624)
I1226 10:39:28.287593 48847 net.cpp:165] Memory required for data: 1627103296
I1226 10:39:28.287600 48847 layer_factory.hpp:77] Creating layer conv4_3
I1226 10:39:28.287617 48847 net.cpp:100] Creating Layer conv4_3
I1226 10:39:28.287624 48847 net.cpp:434] conv4_3 <- conv4_2
I1226 10:39:28.287636 48847 net.cpp:408] conv4_3 -> conv4_3
I1226 10:39:28.316198 48847 net.cpp:150] Setting up conv4_3
I1226 10:39:28.316226 48847 net.cpp:157] Top shape: 8 512 38 38 (5914624)
I1226 10:39:28.316231 48847 net.cpp:165] Memory required for data: 1650761792
I1226 10:39:28.316241 48847 layer_factory.hpp:77] Creating layer relu4_3
I1226 10:39:28.316252 48847 net.cpp:100] Creating Layer relu4_3
I1226 10:39:28.316258 48847 net.cpp:434] relu4_3 <- conv4_3
I1226 10:39:28.316267 48847 net.cpp:395] relu4_3 -> conv4_3 (in-place)
I1226 10:39:28.316278 48847 net.cpp:150] Setting up relu4_3
I1226 10:39:28.316284 48847 net.cpp:157] Top shape: 8 512 38 38 (5914624)
I1226 10:39:28.316288 48847 net.cpp:165] Memory required for data: 1674420288
I1226 10:39:28.316292 48847 layer_factory.hpp:77] Creating layer conv4_3_relu4_3_0_split
I1226 10:39:28.316298 48847 net.cpp:100] Creating Layer conv4_3_relu4_3_0_split
I1226 10:39:28.316301 48847 net.cpp:434] conv4_3_relu4_3_0_split <- conv4_3
I1226 10:39:28.316308 48847 net.cpp:408] conv4_3_relu4_3_0_split -> conv4_3_relu4_3_0_split_0
I1226 10:39:28.316319 48847 net.cpp:408] conv4_3_relu4_3_0_split -> conv4_3_relu4_3_0_split_1
I1226 10:39:28.316365 48847 net.cpp:150] Setting up conv4_3_relu4_3_0_split
I1226 10:39:28.316372 48847 net.cpp:157] Top shape: 8 512 38 38 (5914624)
I1226 10:39:28.316377 48847 net.cpp:157] Top shape: 8 512 38 38 (5914624)
I1226 10:39:28.316380 48847 net.cpp:165] Memory required for data: 1721737280
I1226 10:39:28.316383 48847 layer_factory.hpp:77] Creating layer pool4
I1226 10:39:28.316392 48847 net.cpp:100] Creating Layer pool4
I1226 10:39:28.316398 48847 net.cpp:434] pool4 <- conv4_3_relu4_3_0_split_0
I1226 10:39:28.316406 48847 net.cpp:408] pool4 -> pool4
I1226 10:39:28.316445 48847 net.cpp:150] Setting up pool4
I1226 10:39:28.316452 48847 net.cpp:157] Top shape: 8 512 19 19 (1478656)
I1226 10:39:28.316457 48847 net.cpp:165] Memory required for data: 1727651904
I1226 10:39:28.316459 48847 layer_factory.hpp:77] Creating layer conv5_1
I1226 10:39:28.316471 48847 net.cpp:100] Creating Layer conv5_1
I1226 10:39:28.316505 48847 net.cpp:434] conv5_1 <- pool4
I1226 10:39:28.316514 48847 net.cpp:408] conv5_1 -> conv5_1
I1226 10:39:28.340294 48847 net.cpp:150] Setting up conv5_1
I1226 10:39:28.340332 48847 net.cpp:157] Top shape: 8 512 19 19 (1478656)
I1226 10:39:28.340334 48847 net.cpp:165] Memory required for data: 1733566528
I1226 10:39:28.340345 48847 layer_factory.hpp:77] Creating layer relu5_1
I1226 10:39:28.340356 48847 net.cpp:100] Creating Layer relu5_1
I1226 10:39:28.340361 48847 net.cpp:434] relu5_1 <- conv5_1
I1226 10:39:28.340369 48847 net.cpp:395] relu5_1 -> conv5_1 (in-place)
I1226 10:39:28.340379 48847 net.cpp:150] Setting up relu5_1
I1226 10:39:28.340384 48847 net.cpp:157] Top shape: 8 512 19 19 (1478656)
I1226 10:39:28.340387 48847 net.cpp:165] Memory required for data: 1739481152
I1226 10:39:28.340390 48847 layer_factory.hpp:77] Creating layer conv5_2
I1226 10:39:28.340415 48847 net.cpp:100] Creating Layer conv5_2
I1226 10:39:28.340418 48847 net.cpp:434] conv5_2 <- conv5_1
I1226 10:39:28.340428 48847 net.cpp:408] conv5_2 -> conv5_2
I1226 10:39:28.368497 48847 net.cpp:150] Setting up conv5_2
I1226 10:39:28.368540 48847 net.cpp:157] Top shape: 8 512 19 19 (1478656)
I1226 10:39:28.368542 48847 net.cpp:165] Memory required for data: 1745395776
I1226 10:39:28.368552 48847 layer_factory.hpp:77] Creating layer relu5_2
I1226 10:39:28.368563 48847 net.cpp:100] Creating Layer relu5_2
I1226 10:39:28.368568 48847 net.cpp:434] relu5_2 <- conv5_2
I1226 10:39:28.368576 48847 net.cpp:395] relu5_2 -> conv5_2 (in-place)
I1226 10:39:28.368587 48847 net.cpp:150] Setting up relu5_2
I1226 10:39:28.368592 48847 net.cpp:157] Top shape: 8 512 19 19 (1478656)
I1226 10:39:28.368597 48847 net.cpp:165] Memory required for data: 1751310400
I1226 10:39:28.368600 48847 layer_factory.hpp:77] Creating layer conv5_3
I1226 10:39:28.368613 48847 net.cpp:100] Creating Layer conv5_3
I1226 10:39:28.368618 48847 net.cpp:434] conv5_3 <- conv5_2
I1226 10:39:28.368625 48847 net.cpp:408] conv5_3 -> conv5_3
I1226 10:39:28.396579 48847 net.cpp:150] Setting up conv5_3
I1226 10:39:28.396620 48847 net.cpp:157] Top shape: 8 512 19 19 (1478656)
I1226 10:39:28.396623 48847 net.cpp:165] Memory required for data: 1757225024
I1226 10:39:28.396636 48847 layer_factory.hpp:77] Creating layer relu5_3
I1226 10:39:28.396652 48847 net.cpp:100] Creating Layer relu5_3
I1226 10:39:28.396661 48847 net.cpp:434] relu5_3 <- conv5_3
I1226 10:39:28.396667 48847 net.cpp:395] relu5_3 -> conv5_3 (in-place)
I1226 10:39:28.396678 48847 net.cpp:150] Setting up relu5_3
I1226 10:39:28.396682 48847 net.cpp:157] Top shape: 8 512 19 19 (1478656)
I1226 10:39:28.396684 48847 net.cpp:165] Memory required for data: 1763139648
I1226 10:39:28.396687 48847 layer_factory.hpp:77] Creating layer pool5
I1226 10:39:28.396695 48847 net.cpp:100] Creating Layer pool5
I1226 10:39:28.396698 48847 net.cpp:434] pool5 <- conv5_3
I1226 10:39:28.396703 48847 net.cpp:408] pool5 -> pool5
I1226 10:39:28.396757 48847 net.cpp:150] Setting up pool5
I1226 10:39:28.396765 48847 net.cpp:157] Top shape: 8 512 19 19 (1478656)
I1226 10:39:28.396769 48847 net.cpp:165] Memory required for data: 1769054272
I1226 10:39:28.396771 48847 layer_factory.hpp:77] Creating layer fc6
I1226 10:39:28.396783 48847 net.cpp:100] Creating Layer fc6
I1226 10:39:28.396790 48847 net.cpp:434] fc6 <- pool5
I1226 10:39:28.396796 48847 net.cpp:408] fc6 -> fc6
I1226 10:39:28.446174 48847 net.cpp:150] Setting up fc6
I1226 10:39:28.446220 48847 net.cpp:157] Top shape: 8 1024 19 19 (2957312)
I1226 10:39:28.446225 48847 net.cpp:165] Memory required for data: 1780883520
I1226 10:39:28.446238 48847 layer_factory.hpp:77] Creating layer relu6
I1226 10:39:28.446252 48847 net.cpp:100] Creating Layer relu6
I1226 10:39:28.446260 48847 net.cpp:434] relu6 <- fc6
I1226 10:39:28.446275 48847 net.cpp:395] relu6 -> fc6 (in-place)
I1226 10:39:28.446290 48847 net.cpp:150] Setting up relu6
I1226 10:39:28.446296 48847 net.cpp:157] Top shape: 8 1024 19 19 (2957312)
I1226 10:39:28.446298 48847 net.cpp:165] Memory required for data: 1792712768
I1226 10:39:28.446302 48847 layer_factory.hpp:77] Creating layer fc7
I1226 10:39:28.446341 48847 net.cpp:100] Creating Layer fc7
I1226 10:39:28.446346 48847 net.cpp:434] fc7 <- fc6
I1226 10:39:28.446352 48847 net.cpp:408] fc7 -> fc7
I1226 10:39:28.455668 48847 net.cpp:150] Setting up fc7
I1226 10:39:28.455682 48847 net.cpp:157] Top shape: 8 1024 19 19 (2957312)
I1226 10:39:28.455685 48847 net.cpp:165] Memory required for data: 1804542016
I1226 10:39:28.455693 48847 layer_factory.hpp:77] Creating layer relu7
I1226 10:39:28.455700 48847 net.cpp:100] Creating Layer relu7
I1226 10:39:28.455706 48847 net.cpp:434] relu7 <- fc7
I1226 10:39:28.455713 48847 net.cpp:395] relu7 -> fc7 (in-place)
I1226 10:39:28.455719 48847 net.cpp:150] Setting up relu7
I1226 10:39:28.455725 48847 net.cpp:157] Top shape: 8 1024 19 19 (2957312)
I1226 10:39:28.455727 48847 net.cpp:165] Memory required for data: 1816371264
I1226 10:39:28.455730 48847 layer_factory.hpp:77] Creating layer fc7_relu7_0_split
I1226 10:39:28.455737 48847 net.cpp:100] Creating Layer fc7_relu7_0_split
I1226 10:39:28.455741 48847 net.cpp:434] fc7_relu7_0_split <- fc7
I1226 10:39:28.455749 48847 net.cpp:408] fc7_relu7_0_split -> fc7_relu7_0_split_0
I1226 10:39:28.455760 48847 net.cpp:408] fc7_relu7_0_split -> fc7_relu7_0_split_1
I1226 10:39:28.455780 48847 net.cpp:408] fc7_relu7_0_split -> fc7_relu7_0_split_2
I1226 10:39:28.455787 48847 net.cpp:408] fc7_relu7_0_split -> fc7_relu7_0_split_3
I1226 10:39:28.455854 48847 net.cpp:150] Setting up fc7_relu7_0_split
I1226 10:39:28.455862 48847 net.cpp:157] Top shape: 8 1024 19 19 (2957312)
I1226 10:39:28.455868 48847 net.cpp:157] Top shape: 8 1024 19 19 (2957312)
I1226 10:39:28.455874 48847 net.cpp:157] Top shape: 8 1024 19 19 (2957312)
I1226 10:39:28.455881 48847 net.cpp:157] Top shape: 8 1024 19 19 (2957312)
I1226 10:39:28.455884 48847 net.cpp:165] Memory required for data: 1863688256
I1226 10:39:28.455889 48847 layer_factory.hpp:77] Creating layer conv6_1
I1226 10:39:28.455904 48847 net.cpp:100] Creating Layer conv6_1
I1226 10:39:28.455909 48847 net.cpp:434] conv6_1 <- fc7_relu7_0_split_0
I1226 10:39:28.455919 48847 net.cpp:408] conv6_1 -> conv6_1
I1226 10:39:28.463908 48847 net.cpp:150] Setting up conv6_1
I1226 10:39:28.463954 48847 net.cpp:157] Top shape: 8 256 19 19 (739328)
I1226 10:39:28.463958 48847 net.cpp:165] Memory required for data: 1866645568
I1226 10:39:28.463968 48847 layer_factory.hpp:77] Creating layer conv6_1_relu
I1226 10:39:28.463980 48847 net.cpp:100] Creating Layer conv6_1_relu
I1226 10:39:28.463986 48847 net.cpp:434] conv6_1_relu <- conv6_1
I1226 10:39:28.463994 48847 net.cpp:395] conv6_1_relu -> conv6_1 (in-place)
I1226 10:39:28.464004 48847 net.cpp:150] Setting up conv6_1_relu
I1226 10:39:28.464010 48847 net.cpp:157] Top shape: 8 256 19 19 (739328)
I1226 10:39:28.464012 48847 net.cpp:165] Memory required for data: 1869602880
I1226 10:39:28.464015 48847 layer_factory.hpp:77] Creating layer conv6_2
I1226 10:39:28.464027 48847 net.cpp:100] Creating Layer conv6_2
I1226 10:39:28.464031 48847 net.cpp:434] conv6_2 <- conv6_1
I1226 10:39:28.464040 48847 net.cpp:408] conv6_2 -> conv6_2
I1226 10:39:28.481143 48847 net.cpp:150] Setting up conv6_2
I1226 10:39:28.481185 48847 net.cpp:157] Top shape: 8 512 10 10 (409600)
I1226 10:39:28.481190 48847 net.cpp:165] Memory required for data: 1871241280
I1226 10:39:28.481209 48847 layer_factory.hpp:77] Creating layer conv6_2_relu
I1226 10:39:28.481223 48847 net.cpp:100] Creating Layer conv6_2_relu
I1226 10:39:28.481231 48847 net.cpp:434] conv6_2_relu <- conv6_2
I1226 10:39:28.481240 48847 net.cpp:395] conv6_2_relu -> conv6_2 (in-place)
I1226 10:39:28.481252 48847 net.cpp:150] Setting up conv6_2_relu
I1226 10:39:28.481259 48847 net.cpp:157] Top shape: 8 512 10 10 (409600)
I1226 10:39:28.481262 48847 net.cpp:165] Memory required for data: 1872879680
I1226 10:39:28.481266 48847 layer_factory.hpp:77] Creating layer conv6_2_conv6_2_relu_0_split
I1226 10:39:28.481273 48847 net.cpp:100] Creating Layer conv6_2_conv6_2_relu_0_split
I1226 10:39:28.481276 48847 net.cpp:434] conv6_2_conv6_2_relu_0_split <- conv6_2
I1226 10:39:28.481315 48847 net.cpp:408] conv6_2_conv6_2_relu_0_split -> conv6_2_conv6_2_relu_0_split_0
I1226 10:39:28.481330 48847 net.cpp:408] conv6_2_conv6_2_relu_0_split -> conv6_2_conv6_2_relu_0_split_1
I1226 10:39:28.481341 48847 net.cpp:408] conv6_2_conv6_2_relu_0_split -> conv6_2_conv6_2_relu_0_split_2
I1226 10:39:28.481348 48847 net.cpp:408] conv6_2_conv6_2_relu_0_split -> conv6_2_conv6_2_relu_0_split_3
I1226 10:39:28.481480 48847 net.cpp:150] Setting up conv6_2_conv6_2_relu_0_split
I1226 10:39:28.481500 48847 net.cpp:157] Top shape: 8 512 10 10 (409600)
I1226 10:39:28.481508 48847 net.cpp:157] Top shape: 8 512 10 10 (409600)
I1226 10:39:28.481511 48847 net.cpp:157] Top shape: 8 512 10 10 (409600)
I1226 10:39:28.481516 48847 net.cpp:157] Top shape: 8 512 10 10 (409600)
I1226 10:39:28.481521 48847 net.cpp:165] Memory required for data: 1879433280
I1226 10:39:28.481528 48847 layer_factory.hpp:77] Creating layer conv7_1
I1226 10:39:28.481544 48847 net.cpp:100] Creating Layer conv7_1
I1226 10:39:28.481552 48847 net.cpp:434] conv7_1 <- conv6_2_conv6_2_relu_0_split_0
I1226 10:39:28.481561 48847 net.cpp:408] conv7_1 -> conv7_1
I1226 10:39:28.482368 48847 net.cpp:150] Setting up conv7_1
I1226 10:39:28.482383 48847 net.cpp:157] Top shape: 8 128 10 10 (102400)
I1226 10:39:28.482385 48847 net.cpp:165] Memory required for data: 1879842880
I1226 10:39:28.482393 48847 layer_factory.hpp:77] Creating layer conv7_1_relu
I1226 10:39:28.482403 48847 net.cpp:100] Creating Layer conv7_1_relu
I1226 10:39:28.482405 48847 net.cpp:434] conv7_1_relu <- conv7_1
I1226 10:39:28.482411 48847 net.cpp:395] conv7_1_relu -> conv7_1 (in-place)
I1226 10:39:28.482417 48847 net.cpp:150] Setting up conv7_1_relu
I1226 10:39:28.482422 48847 net.cpp:157] Top shape: 8 128 10 10 (102400)
I1226 10:39:28.482424 48847 net.cpp:165] Memory required for data: 1880252480
I1226 10:39:28.482427 48847 layer_factory.hpp:77] Creating layer conv7_2
I1226 10:39:28.482434 48847 net.cpp:100] Creating Layer conv7_2
I1226 10:39:28.482437 48847 net.cpp:434] conv7_2 <- conv7_1
I1226 10:39:28.482442 48847 net.cpp:408] conv7_2 -> conv7_2
I1226 10:39:28.491574 48847 net.cpp:150] Setting up conv7_2
I1226 10:39:28.491636 48847 net.cpp:157] Top shape: 8 256 5 5 (51200)
I1226 10:39:28.491652 48847 net.cpp:165] Memory required for data: 1880457280
I1226 10:39:28.491689 48847 layer_factory.hpp:77] Creating layer conv7_2_relu
I1226 10:39:28.491731 48847 net.cpp:100] Creating Layer conv7_2_relu
I1226 10:39:28.491755 48847 net.cpp:434] conv7_2_relu <- conv7_2
I1226 10:39:28.491776 48847 net.cpp:395] conv7_2_relu -> conv7_2 (in-place)
I1226 10:39:28.491794 48847 net.cpp:150] Setting up conv7_2_relu
I1226 10:39:28.491811 48847 net.cpp:157] Top shape: 8 256 5 5 (51200)
I1226 10:39:28.491822 48847 net.cpp:165] Memory required for data: 1880662080
I1226 10:39:28.491842 48847 layer_factory.hpp:77] Creating layer conv7_2_conv7_2_relu_0_split
I1226 10:39:28.491870 48847 net.cpp:100] Creating Layer conv7_2_conv7_2_relu_0_split
I1226 10:39:28.491888 48847 net.cpp:434] conv7_2_conv7_2_relu_0_split <- conv7_2
I1226 10:39:28.491909 48847 net.cpp:408] conv7_2_conv7_2_relu_0_split -> conv7_2_conv7_2_relu_0_split_0
I1226 10:39:28.491924 48847 net.cpp:408] conv7_2_conv7_2_relu_0_split -> conv7_2_conv7_2_relu_0_split_1
I1226 10:39:28.491933 48847 net.cpp:408] conv7_2_conv7_2_relu_0_split -> conv7_2_conv7_2_relu_0_split_2
I1226 10:39:28.491941 48847 net.cpp:408] conv7_2_conv7_2_relu_0_split -> conv7_2_conv7_2_relu_0_split_3
I1226 10:39:28.492084 48847 net.cpp:150] Setting up conv7_2_conv7_2_relu_0_split
I1226 10:39:28.492097 48847 net.cpp:157] Top shape: 8 256 5 5 (51200)
I1226 10:39:28.492105 48847 net.cpp:157] Top shape: 8 256 5 5 (51200)
I1226 10:39:28.492110 48847 net.cpp:157] Top shape: 8 256 5 5 (51200)
I1226 10:39:28.492115 48847 net.cpp:157] Top shape: 8 256 5 5 (51200)
I1226 10:39:28.492118 48847 net.cpp:165] Memory required for data: 1881481280
I1226 10:39:28.492125 48847 layer_factory.hpp:77] Creating layer conv8_1
I1226 10:39:28.492141 48847 net.cpp:100] Creating Layer conv8_1
I1226 10:39:28.492179 48847 net.cpp:434] conv8_1 <- conv7_2_conv7_2_relu_0_split_0
I1226 10:39:28.492189 48847 net.cpp:408] conv8_1 -> conv8_1
I1226 10:39:28.492820 48847 net.cpp:150] Setting up conv8_1
I1226 10:39:28.492831 48847 net.cpp:157] Top shape: 8 128 5 5 (25600)
I1226 10:39:28.492835 48847 net.cpp:165] Memory required for data: 1881583680
I1226 10:39:28.492843 48847 layer_factory.hpp:77] Creating layer conv8_1_relu
I1226 10:39:28.492853 48847 net.cpp:100] Creating Layer conv8_1_relu
I1226 10:39:28.492857 48847 net.cpp:434] conv8_1_relu <- conv8_1
I1226 10:39:28.492863 48847 net.cpp:395] conv8_1_relu -> conv8_1 (in-place)
I1226 10:39:28.492871 48847 net.cpp:150] Setting up conv8_1_relu
I1226 10:39:28.492878 48847 net.cpp:157] Top shape: 8 128 5 5 (25600)
I1226 10:39:28.492882 48847 net.cpp:165] Memory required for data: 1881686080
I1226 10:39:28.492885 48847 layer_factory.hpp:77] Creating layer conv8_2
I1226 10:39:28.492897 48847 net.cpp:100] Creating Layer conv8_2
I1226 10:39:28.492902 48847 net.cpp:434] conv8_2 <- conv8_1
I1226 10:39:28.492910 48847 net.cpp:408] conv8_2 -> conv8_2
I1226 10:39:28.497965 48847 net.cpp:150] Setting up conv8_2
I1226 10:39:28.498009 48847 net.cpp:157] Top shape: 8 256 3 3 (18432)
I1226 10:39:28.498018 48847 net.cpp:165] Memory required for data: 1881759808
I1226 10:39:28.498033 48847 layer_factory.hpp:77] Creating layer conv8_2_relu
I1226 10:39:28.498049 48847 net.cpp:100] Creating Layer conv8_2_relu
I1226 10:39:28.498059 48847 net.cpp:434] conv8_2_relu <- conv8_2
I1226 10:39:28.498071 48847 net.cpp:395] conv8_2_relu -> conv8_2 (in-place)
I1226 10:39:28.498087 48847 net.cpp:150] Setting up conv8_2_relu
I1226 10:39:28.500941 48847 net.cpp:157] Top shape: 8 256 3 3 (18432)
I1226 10:39:28.500960 48847 net.cpp:165] Memory required for data: 1881833536
I1226 10:39:28.500967 48847 layer_factory.hpp:77] Creating layer conv8_2_conv8_2_relu_0_split
I1226 10:39:28.500979 48847 net.cpp:100] Creating Layer conv8_2_conv8_2_relu_0_split
I1226 10:39:28.500986 48847 net.cpp:434] conv8_2_conv8_2_relu_0_split <- conv8_2
I1226 10:39:28.500995 48847 net.cpp:408] conv8_2_conv8_2_relu_0_split -> conv8_2_conv8_2_relu_0_split_0
I1226 10:39:28.501008 48847 net.cpp:408] conv8_2_conv8_2_relu_0_split -> conv8_2_conv8_2_relu_0_split_1
I1226 10:39:28.501019 48847 net.cpp:408] conv8_2_conv8_2_relu_0_split -> conv8_2_conv8_2_relu_0_split_2
I1226 10:39:28.501026 48847 net.cpp:408] conv8_2_conv8_2_relu_0_split -> conv8_2_conv8_2_relu_0_split_3
I1226 10:39:28.501245 48847 net.cpp:150] Setting up conv8_2_conv8_2_relu_0_split
I1226 10:39:28.501267 48847 net.cpp:157] Top shape: 8 256 3 3 (18432)
I1226 10:39:28.501276 48847 net.cpp:157] Top shape: 8 256 3 3 (18432)
I1226 10:39:28.501281 48847 net.cpp:157] Top shape: 8 256 3 3 (18432)
I1226 10:39:28.501287 48847 net.cpp:157] Top shape: 8 256 3 3 (18432)
I1226 10:39:28.501292 48847 net.cpp:165] Memory required for data: 1882128448
I1226 10:39:28.501296 48847 layer_factory.hpp:77] Creating layer conv9_1
I1226 10:39:28.501317 48847 net.cpp:100] Creating Layer conv9_1
I1226 10:39:28.501327 48847 net.cpp:434] conv9_1 <- conv8_2_conv8_2_relu_0_split_0
I1226 10:39:28.501344 48847 net.cpp:408] conv9_1 -> conv9_1
I1226 10:39:28.502267 48847 net.cpp:150] Setting up conv9_1
I1226 10:39:28.502295 48847 net.cpp:157] Top shape: 8 128 3 3 (9216)
I1226 10:39:28.502300 48847 net.cpp:165] Memory required for data: 1882165312
I1226 10:39:28.502311 48847 layer_factory.hpp:77] Creating layer conv9_1_relu
I1226 10:39:28.502324 48847 net.cpp:100] Creating Layer conv9_1_relu
I1226 10:39:28.502331 48847 net.cpp:434] conv9_1_relu <- conv9_1
I1226 10:39:28.502339 48847 net.cpp:395] conv9_1_relu -> conv9_1 (in-place)
I1226 10:39:28.502351 48847 net.cpp:150] Setting up conv9_1_relu
I1226 10:39:28.502359 48847 net.cpp:157] Top shape: 8 128 3 3 (9216)
I1226 10:39:28.502362 48847 net.cpp:165] Memory required for data: 1882202176
I1226 10:39:28.502365 48847 layer_factory.hpp:77] Creating layer conv9_2
I1226 10:39:28.502378 48847 net.cpp:100] Creating Layer conv9_2
I1226 10:39:28.502383 48847 net.cpp:434] conv9_2 <- conv9_1
I1226 10:39:28.502425 48847 net.cpp:408] conv9_2 -> conv9_2
I1226 10:39:28.513479 48847 net.cpp:150] Setting up conv9_2
I1226 10:39:28.513520 48847 net.cpp:157] Top shape: 8 256 1 1 (2048)
I1226 10:39:28.513523 48847 net.cpp:165] Memory required for data: 1882210368
I1226 10:39:28.513535 48847 layer_factory.hpp:77] Creating layer conv9_2_relu
I1226 10:39:28.513550 48847 net.cpp:100] Creating Layer conv9_2_relu
I1226 10:39:28.513559 48847 net.cpp:434] conv9_2_relu <- conv9_2
I1226 10:39:28.513568 48847 net.cpp:395] conv9_2_relu -> conv9_2 (in-place)
I1226 10:39:28.513581 48847 net.cpp:150] Setting up conv9_2_relu
I1226 10:39:28.513588 48847 net.cpp:157] Top shape: 8 256 1 1 (2048)
I1226 10:39:28.513592 48847 net.cpp:165] Memory required for data: 1882218560
I1226 10:39:28.513595 48847 layer_factory.hpp:77] Creating layer conv9_2_conv9_2_relu_0_split
I1226 10:39:28.513602 48847 net.cpp:100] Creating Layer conv9_2_conv9_2_relu_0_split
I1226 10:39:28.513608 48847 net.cpp:434] conv9_2_conv9_2_relu_0_split <- conv9_2
I1226 10:39:28.513617 48847 net.cpp:408] conv9_2_conv9_2_relu_0_split -> conv9_2_conv9_2_relu_0_split_0
I1226 10:39:28.513624 48847 net.cpp:408] conv9_2_conv9_2_relu_0_split -> conv9_2_conv9_2_relu_0_split_1
I1226 10:39:28.513634 48847 net.cpp:408] conv9_2_conv9_2_relu_0_split -> conv9_2_conv9_2_relu_0_split_2
I1226 10:39:28.513698 48847 net.cpp:150] Setting up conv9_2_conv9_2_relu_0_split
I1226 10:39:28.513707 48847 net.cpp:157] Top shape: 8 256 1 1 (2048)
I1226 10:39:28.513711 48847 net.cpp:157] Top shape: 8 256 1 1 (2048)
I1226 10:39:28.513715 48847 net.cpp:157] Top shape: 8 256 1 1 (2048)
I1226 10:39:28.513718 48847 net.cpp:165] Memory required for data: 1882243136
I1226 10:39:28.513722 48847 layer_factory.hpp:77] Creating layer conv4_3_norm
I1226 10:39:28.513733 48847 net.cpp:100] Creating Layer conv4_3_norm
I1226 10:39:28.513739 48847 net.cpp:434] conv4_3_norm <- conv4_3_relu4_3_0_split_1
I1226 10:39:28.513746 48847 net.cpp:408] conv4_3_norm -> conv4_3_norm
I1226 10:39:28.513957 48847 net.cpp:150] Setting up conv4_3_norm
I1226 10:39:28.513965 48847 net.cpp:157] Top shape: 8 512 38 38 (5914624)
I1226 10:39:28.513968 48847 net.cpp:165] Memory required for data: 1905901632
I1226 10:39:28.513974 48847 layer_factory.hpp:77] Creating layer conv4_3_norm_conv4_3_norm_0_split
I1226 10:39:28.513983 48847 net.cpp:100] Creating Layer conv4_3_norm_conv4_3_norm_0_split
I1226 10:39:28.513988 48847 net.cpp:434] conv4_3_norm_conv4_3_norm_0_split <- conv4_3_norm
I1226 10:39:28.513993 48847 net.cpp:408] conv4_3_norm_conv4_3_norm_0_split -> conv4_3_norm_conv4_3_norm_0_split_0
I1226 10:39:28.514001 48847 net.cpp:408] conv4_3_norm_conv4_3_norm_0_split -> conv4_3_norm_conv4_3_norm_0_split_1
I1226 10:39:28.514010 48847 net.cpp:408] conv4_3_norm_conv4_3_norm_0_split -> conv4_3_norm_conv4_3_norm_0_split_2
I1226 10:39:28.514080 48847 net.cpp:150] Setting up conv4_3_norm_conv4_3_norm_0_split
I1226 10:39:28.514091 48847 net.cpp:157] Top shape: 8 512 38 38 (5914624)
I1226 10:39:28.514098 48847 net.cpp:157] Top shape: 8 512 38 38 (5914624)
I1226 10:39:28.514106 48847 net.cpp:157] Top shape: 8 512 38 38 (5914624)
I1226 10:39:28.514109 48847 net.cpp:165] Memory required for data: 1976877120
I1226 10:39:28.514113 48847 layer_factory.hpp:77] Creating layer conv4_3_norm_mbox_loc
I1226 10:39:28.516880 48847 net.cpp:100] Creating Layer conv4_3_norm_mbox_loc
I1226 10:39:28.516909 48847 net.cpp:434] conv4_3_norm_mbox_loc <- conv4_3_norm_conv4_3_norm_0_split_0
I1226 10:39:28.516926 48847 net.cpp:408] conv4_3_norm_mbox_loc -> conv4_3_norm_mbox_loc
I1226 10:39:28.518225 48847 net.cpp:150] Setting up conv4_3_norm_mbox_loc
I1226 10:39:28.518251 48847 net.cpp:157] Top shape: 8 16 38 38 (184832)
I1226 10:39:28.518255 48847 net.cpp:165] Memory required for data: 1977616448
I1226 10:39:28.518266 48847 layer_factory.hpp:77] Creating layer conv4_3_norm_mbox_loc_perm
I1226 10:39:28.518280 48847 net.cpp:100] Creating Layer conv4_3_norm_mbox_loc_perm
I1226 10:39:28.518287 48847 net.cpp:434] conv4_3_norm_mbox_loc_perm <- conv4_3_norm_mbox_loc
I1226 10:39:28.518332 48847 net.cpp:408] conv4_3_norm_mbox_loc_perm -> conv4_3_norm_mbox_loc_perm
I1226 10:39:28.518456 48847 net.cpp:150] Setting up conv4_3_norm_mbox_loc_perm
I1226 10:39:28.518465 48847 net.cpp:157] Top shape: 8 38 38 16 (184832)
I1226 10:39:28.518468 48847 net.cpp:165] Memory required for data: 1978355776
I1226 10:39:28.518473 48847 layer_factory.hpp:77] Creating layer conv4_3_norm_mbox_loc_flat
I1226 10:39:28.518482 48847 net.cpp:100] Creating Layer conv4_3_norm_mbox_loc_flat
I1226 10:39:28.518487 48847 net.cpp:434] conv4_3_norm_mbox_loc_flat <- conv4_3_norm_mbox_loc_perm
I1226 10:39:28.518493 48847 net.cpp:408] conv4_3_norm_mbox_loc_flat -> conv4_3_norm_mbox_loc_flat
I1226 10:39:28.518537 48847 net.cpp:150] Setting up conv4_3_norm_mbox_loc_flat
I1226 10:39:28.518545 48847 net.cpp:157] Top shape: 8 23104 (184832)
I1226 10:39:28.518548 48847 net.cpp:165] Memory required for data: 1979095104
I1226 10:39:28.518551 48847 layer_factory.hpp:77] Creating layer conv4_3_norm_mbox_conf
I1226 10:39:28.518575 48847 net.cpp:100] Creating Layer conv4_3_norm_mbox_conf
I1226 10:39:28.518580 48847 net.cpp:434] conv4_3_norm_mbox_conf <- conv4_3_norm_conv4_3_norm_0_split_1
I1226 10:39:28.518587 48847 net.cpp:408] conv4_3_norm_mbox_conf -> conv4_3_norm_mbox_conf
I1226 10:39:28.522614 48847 net.cpp:150] Setting up conv4_3_norm_mbox_conf
I1226 10:39:28.522652 48847 net.cpp:157] Top shape: 8 12 38 38 (138624)
I1226 10:39:28.522655 48847 net.cpp:165] Memory required for data: 1979649600
I1226 10:39:28.522670 48847 layer_factory.hpp:77] Creating layer conv4_3_norm_mbox_conf_perm
I1226 10:39:28.522686 48847 net.cpp:100] Creating Layer conv4_3_norm_mbox_conf_perm
I1226 10:39:28.522694 48847 net.cpp:434] conv4_3_norm_mbox_conf_perm <- conv4_3_norm_mbox_conf
I1226 10:39:28.522703 48847 net.cpp:408] conv4_3_norm_mbox_conf_perm -> conv4_3_norm_mbox_conf_perm
I1226 10:39:28.522828 48847 net.cpp:150] Setting up conv4_3_norm_mbox_conf_perm
I1226 10:39:28.522837 48847 net.cpp:157] Top shape: 8 38 38 12 (138624)
I1226 10:39:28.522841 48847 net.cpp:165] Memory required for data: 1980204096
I1226 10:39:28.522845 48847 layer_factory.hpp:77] Creating layer conv4_3_norm_mbox_conf_flat
I1226 10:39:28.522853 48847 net.cpp:100] Creating Layer conv4_3_norm_mbox_conf_flat
I1226 10:39:28.522857 48847 net.cpp:434] conv4_3_norm_mbox_conf_flat <- conv4_3_norm_mbox_conf_perm
I1226 10:39:28.522866 48847 net.cpp:408] conv4_3_norm_mbox_conf_flat -> conv4_3_norm_mbox_conf_flat
I1226 10:39:28.522893 48847 net.cpp:150] Setting up conv4_3_norm_mbox_conf_flat
I1226 10:39:28.522900 48847 net.cpp:157] Top shape: 8 17328 (138624)
I1226 10:39:28.522903 48847 net.cpp:165] Memory required for data: 1980758592
I1226 10:39:28.522907 48847 layer_factory.hpp:77] Creating layer conv4_3_norm_mbox_priorbox
I1226 10:39:28.522917 48847 net.cpp:100] Creating Layer conv4_3_norm_mbox_priorbox
I1226 10:39:28.522922 48847 net.cpp:434] conv4_3_norm_mbox_priorbox <- conv4_3_norm_conv4_3_norm_0_split_2
I1226 10:39:28.522929 48847 net.cpp:434] conv4_3_norm_mbox_priorbox <- data_data_0_split_1
I1226 10:39:28.522938 48847 net.cpp:408] conv4_3_norm_mbox_priorbox -> conv4_3_norm_mbox_priorbox
I1226 10:39:28.522974 48847 net.cpp:150] Setting up conv4_3_norm_mbox_priorbox
I1226 10:39:28.522980 48847 net.cpp:157] Top shape: 1 2 23104 (46208)
I1226 10:39:28.522984 48847 net.cpp:165] Memory required for data: 1980943424
I1226 10:39:28.522989 48847 layer_factory.hpp:77] Creating layer fc7_mbox_loc
I1226 10:39:28.523001 48847 net.cpp:100] Creating Layer fc7_mbox_loc
I1226 10:39:28.523007 48847 net.cpp:434] fc7_mbox_loc <- fc7_relu7_0_split_1
I1226 10:39:28.523015 48847 net.cpp:408] fc7_mbox_loc -> fc7_mbox_loc
I1226 10:39:28.538758 48847 net.cpp:150] Setting up fc7_mbox_loc
I1226 10:39:28.538792 48847 net.cpp:157] Top shape: 8 24 19 19 (69312)
I1226 10:39:28.538796 48847 net.cpp:165] Memory required for data: 1981220672
I1226 10:39:28.538807 48847 layer_factory.hpp:77] Creating layer fc7_mbox_loc_perm
I1226 10:39:28.538820 48847 net.cpp:100] Creating Layer fc7_mbox_loc_perm
I1226 10:39:28.538827 48847 net.cpp:434] fc7_mbox_loc_perm <- fc7_mbox_loc
I1226 10:39:28.538867 48847 net.cpp:408] fc7_mbox_loc_perm -> fc7_mbox_loc_perm
I1226 10:39:28.538995 48847 net.cpp:150] Setting up fc7_mbox_loc_perm
I1226 10:39:28.539005 48847 net.cpp:157] Top shape: 8 19 19 24 (69312)
I1226 10:39:28.539008 48847 net.cpp:165] Memory required for data: 1981497920
I1226 10:39:28.539011 48847 layer_factory.hpp:77] Creating layer fc7_mbox_loc_flat
I1226 10:39:28.539019 48847 net.cpp:100] Creating Layer fc7_mbox_loc_flat
I1226 10:39:28.539026 48847 net.cpp:434] fc7_mbox_loc_flat <- fc7_mbox_loc_perm
I1226 10:39:28.539031 48847 net.cpp:408] fc7_mbox_loc_flat -> fc7_mbox_loc_flat
I1226 10:39:28.539060 48847 net.cpp:150] Setting up fc7_mbox_loc_flat
I1226 10:39:28.539067 48847 net.cpp:157] Top shape: 8 8664 (69312)
I1226 10:39:28.539072 48847 net.cpp:165] Memory required for data: 1981775168
I1226 10:39:28.539074 48847 layer_factory.hpp:77] Creating layer fc7_mbox_conf
I1226 10:39:28.539085 48847 net.cpp:100] Creating Layer fc7_mbox_conf
I1226 10:39:28.539091 48847 net.cpp:434] fc7_mbox_conf <- fc7_relu7_0_split_2
I1226 10:39:28.539100 48847 net.cpp:408] fc7_mbox_conf -> fc7_mbox_conf
I1226 10:39:28.548322 48847 net.cpp:150] Setting up fc7_mbox_conf
I1226 10:39:28.548359 48847 net.cpp:157] Top shape: 8 18 19 19 (51984)
I1226 10:39:28.548363 48847 net.cpp:165] Memory required for data: 1981983104
I1226 10:39:28.548375 48847 layer_factory.hpp:77] Creating layer fc7_mbox_conf_perm
I1226 10:39:28.548389 48847 net.cpp:100] Creating Layer fc7_mbox_conf_perm
I1226 10:39:28.548395 48847 net.cpp:434] fc7_mbox_conf_perm <- fc7_mbox_conf
I1226 10:39:28.548406 48847 net.cpp:408] fc7_mbox_conf_perm -> fc7_mbox_conf_perm
I1226 10:39:28.548532 48847 net.cpp:150] Setting up fc7_mbox_conf_perm
I1226 10:39:28.548543 48847 net.cpp:157] Top shape: 8 19 19 18 (51984)
I1226 10:39:28.548547 48847 net.cpp:165] Memory required for data: 1982191040
I1226 10:39:28.548549 48847 layer_factory.hpp:77] Creating layer fc7_mbox_conf_flat
I1226 10:39:28.548558 48847 net.cpp:100] Creating Layer fc7_mbox_conf_flat
I1226 10:39:28.548563 48847 net.cpp:434] fc7_mbox_conf_flat <- fc7_mbox_conf_perm
I1226 10:39:28.548570 48847 net.cpp:408] fc7_mbox_conf_flat -> fc7_mbox_conf_flat
I1226 10:39:28.548597 48847 net.cpp:150] Setting up fc7_mbox_conf_flat
I1226 10:39:28.548606 48847 net.cpp:157] Top shape: 8 6498 (51984)
I1226 10:39:28.548609 48847 net.cpp:165] Memory required for data: 1982398976
I1226 10:39:28.548614 48847 layer_factory.hpp:77] Creating layer fc7_mbox_priorbox
I1226 10:39:28.548621 48847 net.cpp:100] Creating Layer fc7_mbox_priorbox
I1226 10:39:28.548627 48847 net.cpp:434] fc7_mbox_priorbox <- fc7_relu7_0_split_3
I1226 10:39:28.548633 48847 net.cpp:434] fc7_mbox_priorbox <- data_data_0_split_2
I1226 10:39:28.548641 48847 net.cpp:408] fc7_mbox_priorbox -> fc7_mbox_priorbox
I1226 10:39:28.548676 48847 net.cpp:150] Setting up fc7_mbox_priorbox
I1226 10:39:28.548686 48847 net.cpp:157] Top shape: 1 2 8664 (17328)
I1226 10:39:28.548688 48847 net.cpp:165] Memory required for data: 1982468288
I1226 10:39:28.548692 48847 layer_factory.hpp:77] Creating layer conv6_2_mbox_loc
I1226 10:39:28.548705 48847 net.cpp:100] Creating Layer conv6_2_mbox_loc
I1226 10:39:28.548712 48847 net.cpp:434] conv6_2_mbox_loc <- conv6_2_conv6_2_relu_0_split_1
I1226 10:39:28.548719 48847 net.cpp:408] conv6_2_mbox_loc -> conv6_2_mbox_loc
I1226 10:39:28.562991 48847 net.cpp:150] Setting up conv6_2_mbox_loc
I1226 10:39:28.563025 48847 net.cpp:157] Top shape: 8 24 10 10 (19200)
I1226 10:39:28.563030 48847 net.cpp:165] Memory required for data: 1982545088
I1226 10:39:28.563040 48847 layer_factory.hpp:77] Creating layer conv6_2_mbox_loc_perm
I1226 10:39:28.563055 48847 net.cpp:100] Creating Layer conv6_2_mbox_loc_perm
I1226 10:39:28.563062 48847 net.cpp:434] conv6_2_mbox_loc_perm <- conv6_2_mbox_loc
I1226 10:39:28.563071 48847 net.cpp:408] conv6_2_mbox_loc_perm -> conv6_2_mbox_loc_perm
I1226 10:39:28.563205 48847 net.cpp:150] Setting up conv6_2_mbox_loc_perm
I1226 10:39:28.563212 48847 net.cpp:157] Top shape: 8 10 10 24 (19200)
I1226 10:39:28.563241 48847 net.cpp:165] Memory required for data: 1982621888
I1226 10:39:28.563246 48847 layer_factory.hpp:77] Creating layer conv6_2_mbox_loc_flat
I1226 10:39:28.563252 48847 net.cpp:100] Creating Layer conv6_2_mbox_loc_flat
I1226 10:39:28.563256 48847 net.cpp:434] conv6_2_mbox_loc_flat <- conv6_2_mbox_loc_perm
I1226 10:39:28.563264 48847 net.cpp:408] conv6_2_mbox_loc_flat -> conv6_2_mbox_loc_flat
I1226 10:39:28.563295 48847 net.cpp:150] Setting up conv6_2_mbox_loc_flat
I1226 10:39:28.563302 48847 net.cpp:157] Top shape: 8 2400 (19200)
I1226 10:39:28.563304 48847 net.cpp:165] Memory required for data: 1982698688
I1226 10:39:28.563308 48847 layer_factory.hpp:77] Creating layer conv6_2_mbox_conf
I1226 10:39:28.563321 48847 net.cpp:100] Creating Layer conv6_2_mbox_conf
I1226 10:39:28.563326 48847 net.cpp:434] conv6_2_mbox_conf <- conv6_2_conv6_2_relu_0_split_2
I1226 10:39:28.563336 48847 net.cpp:408] conv6_2_mbox_conf -> conv6_2_mbox_conf
I1226 10:39:28.564155 48847 net.cpp:150] Setting up conv6_2_mbox_conf
I1226 10:39:28.564165 48847 net.cpp:157] Top shape: 8 18 10 10 (14400)
I1226 10:39:28.564168 48847 net.cpp:165] Memory required for data: 1982756288
I1226 10:39:28.564174 48847 layer_factory.hpp:77] Creating layer conv6_2_mbox_conf_perm
I1226 10:39:28.564184 48847 net.cpp:100] Creating Layer conv6_2_mbox_conf_perm
I1226 10:39:28.564189 48847 net.cpp:434] conv6_2_mbox_conf_perm <- conv6_2_mbox_conf
I1226 10:39:28.564196 48847 net.cpp:408] conv6_2_mbox_conf_perm -> conv6_2_mbox_conf_perm
I1226 10:39:28.564302 48847 net.cpp:150] Setting up conv6_2_mbox_conf_perm
I1226 10:39:28.564309 48847 net.cpp:157] Top shape: 8 10 10 18 (14400)
I1226 10:39:28.564313 48847 net.cpp:165] Memory required for data: 1982813888
I1226 10:39:28.564316 48847 layer_factory.hpp:77] Creating layer conv6_2_mbox_conf_flat
I1226 10:39:28.564323 48847 net.cpp:100] Creating Layer conv6_2_mbox_conf_flat
I1226 10:39:28.564327 48847 net.cpp:434] conv6_2_mbox_conf_flat <- conv6_2_mbox_conf_perm
I1226 10:39:28.564332 48847 net.cpp:408] conv6_2_mbox_conf_flat -> conv6_2_mbox_conf_flat
I1226 10:39:28.564357 48847 net.cpp:150] Setting up conv6_2_mbox_conf_flat
I1226 10:39:28.564363 48847 net.cpp:157] Top shape: 8 1800 (14400)
I1226 10:39:28.564365 48847 net.cpp:165] Memory required for data: 1982871488
I1226 10:39:28.564369 48847 layer_factory.hpp:77] Creating layer conv6_2_mbox_priorbox
I1226 10:39:28.564379 48847 net.cpp:100] Creating Layer conv6_2_mbox_priorbox
I1226 10:39:28.564384 48847 net.cpp:434] conv6_2_mbox_priorbox <- conv6_2_conv6_2_relu_0_split_3
I1226 10:39:28.564389 48847 net.cpp:434] conv6_2_mbox_priorbox <- data_data_0_split_3
I1226 10:39:28.564395 48847 net.cpp:408] conv6_2_mbox_priorbox -> conv6_2_mbox_priorbox
I1226 10:39:28.564425 48847 net.cpp:150] Setting up conv6_2_mbox_priorbox
I1226 10:39:28.564431 48847 net.cpp:157] Top shape: 1 2 2400 (4800)
I1226 10:39:28.564433 48847 net.cpp:165] Memory required for data: 1982890688
I1226 10:39:28.564437 48847 layer_factory.hpp:77] Creating layer conv7_2_mbox_loc
I1226 10:39:28.564448 48847 net.cpp:100] Creating Layer conv7_2_mbox_loc
I1226 10:39:28.564453 48847 net.cpp:434] conv7_2_mbox_loc <- conv7_2_conv7_2_relu_0_split_1
I1226 10:39:28.564461 48847 net.cpp:408] conv7_2_mbox_loc -> conv7_2_mbox_loc
I1226 10:39:28.565084 48847 net.cpp:150] Setting up conv7_2_mbox_loc
I1226 10:39:28.565093 48847 net.cpp:157] Top shape: 8 24 5 5 (4800)
I1226 10:39:28.565095 48847 net.cpp:165] Memory required for data: 1982909888
I1226 10:39:28.565102 48847 layer_factory.hpp:77] Creating layer conv7_2_mbox_loc_perm
I1226 10:39:28.565110 48847 net.cpp:100] Creating Layer conv7_2_mbox_loc_perm
I1226 10:39:28.565114 48847 net.cpp:434] conv7_2_mbox_loc_perm <- conv7_2_mbox_loc
I1226 10:39:28.565121 48847 net.cpp:408] conv7_2_mbox_loc_perm -> conv7_2_mbox_loc_perm
I1226 10:39:28.565235 48847 net.cpp:150] Setting up conv7_2_mbox_loc_perm
I1226 10:39:28.565243 48847 net.cpp:157] Top shape: 8 5 5 24 (4800)
I1226 10:39:28.565246 48847 net.cpp:165] Memory required for data: 1982929088
I1226 10:39:28.565259 48847 layer_factory.hpp:77] Creating layer conv7_2_mbox_loc_flat
I1226 10:39:28.565268 48847 net.cpp:100] Creating Layer conv7_2_mbox_loc_flat
I1226 10:39:28.565271 48847 net.cpp:434] conv7_2_mbox_loc_flat <- conv7_2_mbox_loc_perm
I1226 10:39:28.565279 48847 net.cpp:408] conv7_2_mbox_loc_flat -> conv7_2_mbox_loc_flat
I1226 10:39:28.565304 48847 net.cpp:150] Setting up conv7_2_mbox_loc_flat
I1226 10:39:28.565310 48847 net.cpp:157] Top shape: 8 600 (4800)
I1226 10:39:28.565315 48847 net.cpp:165] Memory required for data: 1982948288
I1226 10:39:28.565317 48847 layer_factory.hpp:77] Creating layer conv7_2_mbox_conf
I1226 10:39:28.565330 48847 net.cpp:100] Creating Layer conv7_2_mbox_conf
I1226 10:39:28.565335 48847 net.cpp:434] conv7_2_mbox_conf <- conv7_2_conv7_2_relu_0_split_2
I1226 10:39:28.565341 48847 net.cpp:408] conv7_2_mbox_conf -> conv7_2_mbox_conf
I1226 10:39:28.565888 48847 net.cpp:150] Setting up conv7_2_mbox_conf
I1226 10:39:28.565898 48847 net.cpp:157] Top shape: 8 18 5 5 (3600)
I1226 10:39:28.565901 48847 net.cpp:165] Memory required for data: 1982962688
I1226 10:39:28.565907 48847 layer_factory.hpp:77] Creating layer conv7_2_mbox_conf_perm
I1226 10:39:28.565915 48847 net.cpp:100] Creating Layer conv7_2_mbox_conf_perm
I1226 10:39:28.565920 48847 net.cpp:434] conv7_2_mbox_conf_perm <- conv7_2_mbox_conf
I1226 10:39:28.565927 48847 net.cpp:408] conv7_2_mbox_conf_perm -> conv7_2_mbox_conf_perm
I1226 10:39:28.566038 48847 net.cpp:150] Setting up conv7_2_mbox_conf_perm
I1226 10:39:28.566045 48847 net.cpp:157] Top shape: 8 5 5 18 (3600)
I1226 10:39:28.566048 48847 net.cpp:165] Memory required for data: 1982977088
I1226 10:39:28.566051 48847 layer_factory.hpp:77] Creating layer conv7_2_mbox_conf_flat
I1226 10:39:28.566056 48847 net.cpp:100] Creating Layer conv7_2_mbox_conf_flat
I1226 10:39:28.566061 48847 net.cpp:434] conv7_2_mbox_conf_flat <- conv7_2_mbox_conf_perm
I1226 10:39:28.566067 48847 net.cpp:408] conv7_2_mbox_conf_flat -> conv7_2_mbox_conf_flat
I1226 10:39:28.566092 48847 net.cpp:150] Setting up conv7_2_mbox_conf_flat
I1226 10:39:28.566099 48847 net.cpp:157] Top shape: 8 450 (3600)
I1226 10:39:28.566102 48847 net.cpp:165] Memory required for data: 1982991488
I1226 10:39:28.566104 48847 layer_factory.hpp:77] Creating layer conv7_2_mbox_priorbox
I1226 10:39:28.566110 48847 net.cpp:100] Creating Layer conv7_2_mbox_priorbox
I1226 10:39:28.566114 48847 net.cpp:434] conv7_2_mbox_priorbox <- conv7_2_conv7_2_relu_0_split_3
I1226 10:39:28.566119 48847 net.cpp:434] conv7_2_mbox_priorbox <- data_data_0_split_4
I1226 10:39:28.566125 48847 net.cpp:408] conv7_2_mbox_priorbox -> conv7_2_mbox_priorbox
I1226 10:39:28.566154 48847 net.cpp:150] Setting up conv7_2_mbox_priorbox
I1226 10:39:28.566160 48847 net.cpp:157] Top shape: 1 2 600 (1200)
I1226 10:39:28.566162 48847 net.cpp:165] Memory required for data: 1982996288
I1226 10:39:28.566165 48847 layer_factory.hpp:77] Creating layer conv8_2_mbox_loc
I1226 10:39:28.566175 48847 net.cpp:100] Creating Layer conv8_2_mbox_loc
I1226 10:39:28.566180 48847 net.cpp:434] conv8_2_mbox_loc <- conv8_2_conv8_2_relu_0_split_1
I1226 10:39:28.566190 48847 net.cpp:408] conv8_2_mbox_loc -> conv8_2_mbox_loc
I1226 10:39:28.566702 48847 net.cpp:150] Setting up conv8_2_mbox_loc
I1226 10:39:28.566710 48847 net.cpp:157] Top shape: 8 16 3 3 (1152)
I1226 10:39:28.566715 48847 net.cpp:165] Memory required for data: 1983000896
I1226 10:39:28.566733 48847 layer_factory.hpp:77] Creating layer conv8_2_mbox_loc_perm
I1226 10:39:28.566742 48847 net.cpp:100] Creating Layer conv8_2_mbox_loc_perm
I1226 10:39:28.566746 48847 net.cpp:434] conv8_2_mbox_loc_perm <- conv8_2_mbox_loc
I1226 10:39:28.566752 48847 net.cpp:408] conv8_2_mbox_loc_perm -> conv8_2_mbox_loc_perm
I1226 10:39:28.566869 48847 net.cpp:150] Setting up conv8_2_mbox_loc_perm
I1226 10:39:28.566875 48847 net.cpp:157] Top shape: 8 3 3 16 (1152)
I1226 10:39:28.566879 48847 net.cpp:165] Memory required for data: 1983005504
I1226 10:39:28.566882 48847 layer_factory.hpp:77] Creating layer conv8_2_mbox_loc_flat
I1226 10:39:28.566887 48847 net.cpp:100] Creating Layer conv8_2_mbox_loc_flat
I1226 10:39:28.566902 48847 net.cpp:434] conv8_2_mbox_loc_flat <- conv8_2_mbox_loc_perm
I1226 10:39:28.566910 48847 net.cpp:408] conv8_2_mbox_loc_flat -> conv8_2_mbox_loc_flat
I1226 10:39:28.566938 48847 net.cpp:150] Setting up conv8_2_mbox_loc_flat
I1226 10:39:28.566944 48847 net.cpp:157] Top shape: 8 144 (1152)
I1226 10:39:28.566947 48847 net.cpp:165] Memory required for data: 1983010112
I1226 10:39:28.566951 48847 layer_factory.hpp:77] Creating layer conv8_2_mbox_conf
I1226 10:39:28.566962 48847 net.cpp:100] Creating Layer conv8_2_mbox_conf
I1226 10:39:28.566967 48847 net.cpp:434] conv8_2_mbox_conf <- conv8_2_conv8_2_relu_0_split_2
I1226 10:39:28.566972 48847 net.cpp:408] conv8_2_mbox_conf -> conv8_2_mbox_conf
I1226 10:39:28.567414 48847 net.cpp:150] Setting up conv8_2_mbox_conf
I1226 10:39:28.567422 48847 net.cpp:157] Top shape: 8 12 3 3 (864)
I1226 10:39:28.567425 48847 net.cpp:165] Memory required for data: 1983013568
I1226 10:39:28.567431 48847 layer_factory.hpp:77] Creating layer conv8_2_mbox_conf_perm
I1226 10:39:28.567441 48847 net.cpp:100] Creating Layer conv8_2_mbox_conf_perm
I1226 10:39:28.567447 48847 net.cpp:434] conv8_2_mbox_conf_perm <- conv8_2_mbox_conf
I1226 10:39:28.567452 48847 net.cpp:408] conv8_2_mbox_conf_perm -> conv8_2_mbox_conf_perm
I1226 10:39:28.567561 48847 net.cpp:150] Setting up conv8_2_mbox_conf_perm
I1226 10:39:28.567567 48847 net.cpp:157] Top shape: 8 3 3 12 (864)
I1226 10:39:28.567571 48847 net.cpp:165] Memory required for data: 1983017024
I1226 10:39:28.567574 48847 layer_factory.hpp:77] Creating layer conv8_2_mbox_conf_flat
I1226 10:39:28.567581 48847 net.cpp:100] Creating Layer conv8_2_mbox_conf_flat
I1226 10:39:28.567584 48847 net.cpp:434] conv8_2_mbox_conf_flat <- conv8_2_mbox_conf_perm
I1226 10:39:28.567590 48847 net.cpp:408] conv8_2_mbox_conf_flat -> conv8_2_mbox_conf_flat
I1226 10:39:28.567618 48847 net.cpp:150] Setting up conv8_2_mbox_conf_flat
I1226 10:39:28.567625 48847 net.cpp:157] Top shape: 8 108 (864)
I1226 10:39:28.567626 48847 net.cpp:165] Memory required for data: 1983020480
I1226 10:39:28.567631 48847 layer_factory.hpp:77] Creating layer conv8_2_mbox_priorbox
I1226 10:39:28.567638 48847 net.cpp:100] Creating Layer conv8_2_mbox_priorbox
I1226 10:39:28.567643 48847 net.cpp:434] conv8_2_mbox_priorbox <- conv8_2_conv8_2_relu_0_split_3
I1226 10:39:28.567647 48847 net.cpp:434] conv8_2_mbox_priorbox <- data_data_0_split_5
I1226 10:39:28.567653 48847 net.cpp:408] conv8_2_mbox_priorbox -> conv8_2_mbox_priorbox
I1226 10:39:28.567683 48847 net.cpp:150] Setting up conv8_2_mbox_priorbox
I1226 10:39:28.567689 48847 net.cpp:157] Top shape: 1 2 144 (288)
I1226 10:39:28.567692 48847 net.cpp:165] Memory required for data: 1983021632
I1226 10:39:28.567697 48847 layer_factory.hpp:77] Creating layer conv9_2_mbox_loc
I1226 10:39:28.567708 48847 net.cpp:100] Creating Layer conv9_2_mbox_loc
I1226 10:39:28.567710 48847 net.cpp:434] conv9_2_mbox_loc <- conv9_2_conv9_2_relu_0_split_0
I1226 10:39:28.567718 48847 net.cpp:408] conv9_2_mbox_loc -> conv9_2_mbox_loc
I1226 10:39:28.568217 48847 net.cpp:150] Setting up conv9_2_mbox_loc
I1226 10:39:28.568223 48847 net.cpp:157] Top shape: 8 16 1 1 (128)
I1226 10:39:28.568225 48847 net.cpp:165] Memory required for data: 1983022144
I1226 10:39:28.568231 48847 layer_factory.hpp:77] Creating layer conv9_2_mbox_loc_perm
I1226 10:39:28.568238 48847 net.cpp:100] Creating Layer conv9_2_mbox_loc_perm
I1226 10:39:28.568241 48847 net.cpp:434] conv9_2_mbox_loc_perm <- conv9_2_mbox_loc
I1226 10:39:28.568248 48847 net.cpp:408] conv9_2_mbox_loc_perm -> conv9_2_mbox_loc_perm
I1226 10:39:28.568356 48847 net.cpp:150] Setting up conv9_2_mbox_loc_perm
I1226 10:39:28.568361 48847 net.cpp:157] Top shape: 8 1 1 16 (128)
I1226 10:39:28.568363 48847 net.cpp:165] Memory required for data: 1983022656
I1226 10:39:28.568367 48847 layer_factory.hpp:77] Creating layer conv9_2_mbox_loc_flat
I1226 10:39:28.568372 48847 net.cpp:100] Creating Layer conv9_2_mbox_loc_flat
I1226 10:39:28.568377 48847 net.cpp:434] conv9_2_mbox_loc_flat <- conv9_2_mbox_loc_perm
I1226 10:39:28.568392 48847 net.cpp:408] conv9_2_mbox_loc_flat -> conv9_2_mbox_loc_flat
I1226 10:39:28.568418 48847 net.cpp:150] Setting up conv9_2_mbox_loc_flat
I1226 10:39:28.568423 48847 net.cpp:157] Top shape: 8 16 (128)
I1226 10:39:28.568425 48847 net.cpp:165] Memory required for data: 1983023168
I1226 10:39:28.568428 48847 layer_factory.hpp:77] Creating layer conv9_2_mbox_conf
I1226 10:39:28.568442 48847 net.cpp:100] Creating Layer conv9_2_mbox_conf
I1226 10:39:28.568445 48847 net.cpp:434] conv9_2_mbox_conf <- conv9_2_conv9_2_relu_0_split_1
I1226 10:39:28.568452 48847 net.cpp:408] conv9_2_mbox_conf -> conv9_2_mbox_conf
I1226 10:39:28.568895 48847 net.cpp:150] Setting up conv9_2_mbox_conf
I1226 10:39:28.568902 48847 net.cpp:157] Top shape: 8 12 1 1 (96)
I1226 10:39:28.568904 48847 net.cpp:165] Memory required for data: 1983023552
I1226 10:39:28.568912 48847 layer_factory.hpp:77] Creating layer conv9_2_mbox_conf_perm
I1226 10:39:28.568919 48847 net.cpp:100] Creating Layer conv9_2_mbox_conf_perm
I1226 10:39:28.568922 48847 net.cpp:434] conv9_2_mbox_conf_perm <- conv9_2_mbox_conf
I1226 10:39:28.568928 48847 net.cpp:408] conv9_2_mbox_conf_perm -> conv9_2_mbox_conf_perm
I1226 10:39:28.569036 48847 net.cpp:150] Setting up conv9_2_mbox_conf_perm
I1226 10:39:28.569041 48847 net.cpp:157] Top shape: 8 1 1 12 (96)
I1226 10:39:28.569044 48847 net.cpp:165] Memory required for data: 1983023936
I1226 10:39:28.569047 48847 layer_factory.hpp:77] Creating layer conv9_2_mbox_conf_flat
I1226 10:39:28.569053 48847 net.cpp:100] Creating Layer conv9_2_mbox_conf_flat
I1226 10:39:28.569056 48847 net.cpp:434] conv9_2_mbox_conf_flat <- conv9_2_mbox_conf_perm
I1226 10:39:28.569062 48847 net.cpp:408] conv9_2_mbox_conf_flat -> conv9_2_mbox_conf_flat
I1226 10:39:28.569087 48847 net.cpp:150] Setting up conv9_2_mbox_conf_flat
I1226 10:39:28.569092 48847 net.cpp:157] Top shape: 8 12 (96)
I1226 10:39:28.569094 48847 net.cpp:165] Memory required for data: 1983024320
I1226 10:39:28.569097 48847 layer_factory.hpp:77] Creating layer conv9_2_mbox_priorbox
I1226 10:39:28.569103 48847 net.cpp:100] Creating Layer conv9_2_mbox_priorbox
I1226 10:39:28.569108 48847 net.cpp:434] conv9_2_mbox_priorbox <- conv9_2_conv9_2_relu_0_split_2
I1226 10:39:28.569111 48847 net.cpp:434] conv9_2_mbox_priorbox <- data_data_0_split_6
I1226 10:39:28.569118 48847 net.cpp:408] conv9_2_mbox_priorbox -> conv9_2_mbox_priorbox
I1226 10:39:28.569145 48847 net.cpp:150] Setting up conv9_2_mbox_priorbox
I1226 10:39:28.569150 48847 net.cpp:157] Top shape: 1 2 16 (32)
I1226 10:39:28.569154 48847 net.cpp:165] Memory required for data: 1983024448
I1226 10:39:28.569156 48847 layer_factory.hpp:77] Creating layer mbox_loc
I1226 10:39:28.569164 48847 net.cpp:100] Creating Layer mbox_loc
I1226 10:39:28.569169 48847 net.cpp:434] mbox_loc <- conv4_3_norm_mbox_loc_flat
I1226 10:39:28.569175 48847 net.cpp:434] mbox_loc <- fc7_mbox_loc_flat
I1226 10:39:28.569180 48847 net.cpp:434] mbox_loc <- conv6_2_mbox_loc_flat
I1226 10:39:28.569183 48847 net.cpp:434] mbox_loc <- conv7_2_mbox_loc_flat
I1226 10:39:28.569187 48847 net.cpp:434] mbox_loc <- conv8_2_mbox_loc_flat
I1226 10:39:28.569191 48847 net.cpp:434] mbox_loc <- conv9_2_mbox_loc_flat
I1226 10:39:28.569198 48847 net.cpp:408] mbox_loc -> mbox_loc
I1226 10:39:28.569228 48847 net.cpp:150] Setting up mbox_loc
I1226 10:39:28.569236 48847 net.cpp:157] Top shape: 8 34928 (279424)
I1226 10:39:28.569237 48847 net.cpp:165] Memory required for data: 1984142144
I1226 10:39:28.569241 48847 layer_factory.hpp:77] Creating layer mbox_conf
I1226 10:39:28.569247 48847 net.cpp:100] Creating Layer mbox_conf
I1226 10:39:28.569252 48847 net.cpp:434] mbox_conf <- conv4_3_norm_mbox_conf_flat
I1226 10:39:28.569257 48847 net.cpp:434] mbox_conf <- fc7_mbox_conf_flat
I1226 10:39:28.569260 48847 net.cpp:434] mbox_conf <- conv6_2_mbox_conf_flat
I1226 10:39:28.569263 48847 net.cpp:434] mbox_conf <- conv7_2_mbox_conf_flat
I1226 10:39:28.569268 48847 net.cpp:434] mbox_conf <- conv8_2_mbox_conf_flat
I1226 10:39:28.569272 48847 net.cpp:434] mbox_conf <- conv9_2_mbox_conf_flat
I1226 10:39:28.569288 48847 net.cpp:408] mbox_conf -> mbox_conf
I1226 10:39:28.569316 48847 net.cpp:150] Setting up mbox_conf
I1226 10:39:28.569322 48847 net.cpp:157] Top shape: 8 26196 (209568)
I1226 10:39:28.569325 48847 net.cpp:165] Memory required for data: 1984980416
I1226 10:39:28.569327 48847 layer_factory.hpp:77] Creating layer mbox_priorbox
I1226 10:39:28.569332 48847 net.cpp:100] Creating Layer mbox_priorbox
I1226 10:39:28.569337 48847 net.cpp:434] mbox_priorbox <- conv4_3_norm_mbox_priorbox
I1226 10:39:28.569341 48847 net.cpp:434] mbox_priorbox <- fc7_mbox_priorbox
I1226 10:39:28.569345 48847 net.cpp:434] mbox_priorbox <- conv6_2_mbox_priorbox
I1226 10:39:28.569349 48847 net.cpp:434] mbox_priorbox <- conv7_2_mbox_priorbox
I1226 10:39:28.569352 48847 net.cpp:434] mbox_priorbox <- conv8_2_mbox_priorbox
I1226 10:39:28.569356 48847 net.cpp:434] mbox_priorbox <- conv9_2_mbox_priorbox
I1226 10:39:28.569360 48847 net.cpp:408] mbox_priorbox -> mbox_priorbox
I1226 10:39:28.569386 48847 net.cpp:150] Setting up mbox_priorbox
I1226 10:39:28.569391 48847 net.cpp:157] Top shape: 1 2 34928 (69856)
I1226 10:39:28.569393 48847 net.cpp:165] Memory required for data: 1985259840
I1226 10:39:28.569396 48847 layer_factory.hpp:77] Creating layer mbox_conf_reshape
I1226 10:39:28.569408 48847 net.cpp:100] Creating Layer mbox_conf_reshape
I1226 10:39:28.569412 48847 net.cpp:434] mbox_conf_reshape <- mbox_conf
I1226 10:39:28.569419 48847 net.cpp:408] mbox_conf_reshape -> mbox_conf_reshape
I1226 10:39:28.569458 48847 net.cpp:150] Setting up mbox_conf_reshape
I1226 10:39:28.569463 48847 net.cpp:157] Top shape: 8 8732 3 (209568)
I1226 10:39:28.569466 48847 net.cpp:165] Memory required for data: 1986098112
I1226 10:39:28.569469 48847 layer_factory.hpp:77] Creating layer mbox_conf_softmax
I1226 10:39:28.569475 48847 net.cpp:100] Creating Layer mbox_conf_softmax
I1226 10:39:28.569478 48847 net.cpp:434] mbox_conf_softmax <- mbox_conf_reshape
I1226 10:39:28.569486 48847 net.cpp:408] mbox_conf_softmax -> mbox_conf_softmax
I1226 10:39:28.569550 48847 net.cpp:150] Setting up mbox_conf_softmax
I1226 10:39:28.569555 48847 net.cpp:157] Top shape: 8 8732 3 (209568)
I1226 10:39:28.569558 48847 net.cpp:165] Memory required for data: 1986936384
I1226 10:39:28.569561 48847 layer_factory.hpp:77] Creating layer mbox_conf_flatten
I1226 10:39:28.569566 48847 net.cpp:100] Creating Layer mbox_conf_flatten
I1226 10:39:28.569569 48847 net.cpp:434] mbox_conf_flatten <- mbox_conf_softmax
I1226 10:39:28.569574 48847 net.cpp:408] mbox_conf_flatten -> mbox_conf_flatten
I1226 10:39:28.569602 48847 net.cpp:150] Setting up mbox_conf_flatten
I1226 10:39:28.569607 48847 net.cpp:157] Top shape: 8 26196 (209568)
I1226 10:39:28.569609 48847 net.cpp:165] Memory required for data: 1987774656
I1226 10:39:28.569612 48847 layer_factory.hpp:77] Creating layer detection_out
I1226 10:39:28.569625 48847 net.cpp:100] Creating Layer detection_out
I1226 10:39:28.569628 48847 net.cpp:434] detection_out <- mbox_loc
I1226 10:39:28.569633 48847 net.cpp:434] detection_out <- mbox_conf_flatten
I1226 10:39:28.569636 48847 net.cpp:434] detection_out <- mbox_priorbox
I1226 10:39:28.569645 48847 net.cpp:408] detection_out -> detection_out
I1226 10:39:28.663547 48847 net.cpp:150] Setting up detection_out
I1226 10:39:28.663570 48847 net.cpp:157] Top shape: 1 1 1 7 (7)
I1226 10:39:28.663573 48847 net.cpp:165] Memory required for data: 1987774684
I1226 10:39:28.663579 48847 layer_factory.hpp:77] Creating layer detection_eval
I1226 10:39:28.663590 48847 net.cpp:100] Creating Layer detection_eval
I1226 10:39:28.663595 48847 net.cpp:434] detection_eval <- detection_out
I1226 10:39:28.663602 48847 net.cpp:434] detection_eval <- label
I1226 10:39:28.663610 48847 net.cpp:408] detection_eval -> detection_eval
I1226 10:39:28.663970 48847 net.cpp:150] Setting up detection_eval
I1226 10:39:28.663981 48847 net.cpp:157] Top shape: 1 1 3 5 (15)
I1226 10:39:28.663983 48847 net.cpp:165] Memory required for data: 1987774744
I1226 10:39:28.663987 48847 net.cpp:228] detection_eval does not need backward computation.
I1226 10:39:28.664013 48847 net.cpp:228] detection_out does not need backward computation.
I1226 10:39:28.664017 48847 net.cpp:228] mbox_conf_flatten does not need backward computation.
I1226 10:39:28.664021 48847 net.cpp:228] mbox_conf_softmax does not need backward computation.
…
